…
: False, 'ema_decay': 0.9999, 'ema_start_update': 0, 'ema_seed_model': None, 'ema_update_freq': 1, 'ema_fp32': False}}
2022-11-28 07:35:08 [1,0]<stderr>:2022-11-28 15:35:07 | INFO | unilm.tasks.pretraining | dictionary: 250104 types
2022-11-28 07:35:26 [1,0]<stderr>:2022-11-28 15:35:24 | INFO | fairseq_cli.train | ElectraEncoderDecoderv6(
2022-11-28 07:35:26 [1,0]<stderr>:  (encoder): ElectraEncoderv6(
2022-11-28 07:35:26 [1,0]<stderr>:    (discriminator): UniLMBody(
2022-11-28 07:35:26 [1,0]<stderr>:      (dropout_module): FairseqDropout()
2022-11-28 07:35:26 [1,0]<stderr>:      (embed_tokens): Embedding(250104, 1024, padding_idx=1)
2022-11-28 07:35:26 [1,0]<stderr>:      (embed_positions): LearnedPositionalEmbedding(1026, 1024, padding_idx=1)
2022-11-28 07:35:26 [1,0]<stderr>:      (layernorm_embedding): FusedLayerNorm(torch.Size([1024]), eps=1e-05, elementwise_affine=True)
2022-11-28 07:35:26 [1,0]<stderr>:      (layers): ModuleList(
2022-11-28 07:35:26 [1,0]<stderr>:        (0): UniLMLayer(
2022-11-28 07:35:26 [1,0]<stderr>:          (dropout_module): FairseqDropout()
2022-11-28 07:35:26 [1,0]<stderr>:          (self_attn): MultiheadAttention(
2022-11-28 07:35:26 [1,0]<stderr>:            (dropout_module): FairseqDropout()
2022-11-28 07:35:26 [1,0]<stderr>:            (k_proj): Linear(in_features=1024, out_features=1024, bias=True)
2022-11-28 07:35:26 [1,0]<stderr>:            (v_proj): Linear(in_features=1024, out_features=1024, bias=True)
2022-11-28 07:35:26 [1,0]<stderr>:            (q_proj): Linear(in_features=1024, out_features=1024, bias=True)
2022-11-28 07:35:26 [1,0]<stderr>:            (out_proj): Linear(in_features=1024, out_features=1024, bias=True)
2022-11-28 07:35:26 [1,0]<stderr>:          )
2022-11-28 07:35:26 [1,0]<stderr>:          (activation_dropout_module): FairseqDropout()
2022-11-28 07:35:26 [1,0]<stderr>:          (self_attn_layer_norm): FusedLayerNorm(torch.Size([1024]), eps=1e-05, elementwise_affine=True)
2022-11-28 07:35:26 [1,0]<stderr>:          (fc1): Linear(in_features=1024, out_features=4096, bias=True)
2022-11-28 07:35:26 [1,0]<stderr>:          (fc2): Linear(in_features=4096, out_features=1024, bias=True)
2022-11-28 07:35:26 [1,0]<stderr>:          (final_layer_norm): FusedLayerNorm(torch.Size([1024]), eps=1e-05, elementwise_affine=True)
2022-11-28 07:35:26 [1,0]<stderr>:        )
2022-11-28 07:35:26 [1,0]<stderr>:        (1): UniLMLayer(
2022-11-28 07:35:26 [1,0]<stderr>:          (dropout_module): FairseqDropout()
2022-11-28 07:35:26 [1,0]<stderr>:          (self_attn): MultiheadAttention(
2022-11-28 07:35:26 [1,0]<stderr>:            (dropout_module): FairseqDropout()
2022-11-28 07:35:26 [1,0]<stderr>:            (k_proj): Linear(in_features=1024, out_features=1024, bias=True)
2022-11-28 07:35:26 [1,0]<stderr>:            (v_proj): Linear(in_features=1024, out_features=1024, bias=True)
2022-11-28 07:35:26 [1,0]<stderr>:            (q_proj): Linear(in_features=1024, out_features=1024, bias=True)
2022-11-28 07:35:26 [1,0]<stderr>:            (out_proj): Linear(in_features=1024, out_features=1024, bias=True)
2022-11-28 07:35:26 [1,0]<stderr>:          )
2022-11-28 07:35:26 [1,0]<stderr>:          (activation_dropout_module): FairseqDropout()
2022-11-28 07:35:26 [1,0]<stderr>:          (self_attn_layer_norm): FusedLayerNorm(torch.Size([1024]), eps=1e-05, elementwise_affine=True)
2022-11-28 07:35:26 [1,0]<stderr>:          (fc1): Linear(in_features=1024, out_features=4096, bias=True)
2022-11-28 07:35:26 [1,0]<stderr>:          (fc2): Linear(in_features=4096, out_features=1024, bias=True)
2022-11-28 07:35:26 [1,0]<stderr>:          (final_layer_norm): FusedLayerNorm(torch.Size([1024]), eps=1e-05, elementwise_affine=True)
2022-11-28 07:35:26 [1,0]<stderr>:        )
2022-11-28 07:35:26 [1,0]<stderr>:        (2): UniLMLayer(
2022-11-28 07:35:26 [1,0]<stderr>:          (dropout_module): FairseqDropout()
2022-11-28 07:35:26 [1,0]<stderr>:          (self_attn): MultiheadAttention(
2022-11-28 07:35:26 [1,0]<stderr>:            (dropout_module): FairseqDropout()
2022-11-28 07:35:26 [1,0]<stderr>:            (k_proj): Linear(in_features=1024, out_features=1024, bias=True)
2022-11-28 07:35:26 [1,0]<stderr>:            (v_proj): Linear(in_features=1024, out_features=1024, bias=True)
2022-11-28 07:35:26 [1,0]<stderr>:            (q_proj): Linear(in_features=1024, out_features=1024, bias=True)
2022-11-28 07:35:26 [1,0]<stderr>:            (out_proj): Linear(in_features=1024, out_features=1024, bias=True)
2022-11-28 07:35:26 [1,0]<stderr>:          )
2022-11-28 07:35:26 [1,0]<stderr>:          (activation_dropout_module): FairseqDropout()
2022-11-28 07:35:26 [1,0]<stderr>:          (self_attn_layer_norm): FusedLayerNorm(torch.Size([1024]), eps=1e-05, elementwise_affine=True)
2022-11-28 07:35:26 [1,0]<stderr>:          (fc1): Linear(in_features=1024, out_features=4096, bias=True)
2022-11-28 07:35:26 [1,0]<stderr>:          (fc2): Linear(in_features=4096, out_features=1024, bias=True)
2022-11-28 07:35:26 [1,0]<stderr>:          (final_layer_norm): FusedLayerNorm(torch.Size([1024]), eps=1e-05, elementwise_affine=True)
2022-11-28 07:35:26 [1,0]<stderr>:        )
2022-11-28 07:35:26 [1,0]<stderr>:        (3): UniLMLayer(
2022-11-28 07:35:26 [1,0]<stderr>:          (dropout_module): FairseqDropout()
2022-11-28 07:35:26 [1,0]<stderr>:          (self_attn): MultiheadAttention(
2022-11-28 07:35:26 [1,0]<stderr>:            (dropout_module): FairseqDropout()
2022-11-28 07:35:26 [1,0]<stderr>:            (k_proj): Linear(in_features=1024, out_features=1024, bias=True)
2022-11-28 07:35:26 [1,0]<stderr>:            (v_proj): Linear(in_features=1024, out_features=1024, bias=True)
2022-11-28 07:35:26 [1,0]<stderr>:            (q_proj): Linear(in_features=1024, out_features=1024, bias=True)
2022-11-28 07:35:26 [1,0]<stderr>:            (out_proj): Linear(in_features=1024, out_features=1024, bias=True)
2022-11-28 07:35:26 [1,0]<stderr>:          )
2022-11-28 07:35:26 [1,0]<stderr>:          (activation_dropout_module): FairseqDropout()
2022-11-28 07:35:26 [1,0]<stderr>:          (self_attn_layer_norm): FusedLayerNorm(torch.Size([1024]), eps=1e-05, elementwise_affine=True)
2022-11-28 07:35:26 [1,0]<stderr>:          (fc1): Linear(in_features=1024, out_features=4096, bias=True)
2022-11-28 07:35:26 [1,0]<stderr>:          (fc2): Linear(in_features=4096, out_features=1024, bias=True)
2022-11-28 07:35:26 [1,0]<stderr>:          (final_layer_norm): FusedLayerNorm(torch.Size([1024]), eps=1e-05, elementwise_affine=True)
2022-11-28 07:35:26 [1,0]<stderr>:        )
2022-11-28 07:35:26 [1,0]<stderr>:        (4): UniLMLayer(
2022-11-28 07:35:26 [1,0]<stderr>:          (dropout_module): Fairs[1,0]<stderr>:eqDropout()
2022-11-28 07:35:26 [1,0]<stderr>:          (self_attn): MultiheadAttention(
2022-11-28 07:35:26 [1,0]<stderr>:            (dropout_module): FairseqDropout()
2022-11-28 07:35:26 [1,0]<stderr>:            (k_proj): Linear(in_features=1024, out_features=1024, bias=True)
2022-11-28 07:35:26 [1,0]<stderr>:            (v_proj): Linear(in_features=1024, out_features=1024, bias=True)
2022-11-28 07:35:26 [1,0]<stderr>:            (q_proj): Linear(in_features=1024, out_features=1024, bias=True)
2022-11-28 07:35:26 [1,0]<stderr>:            (out_proj): Linear(in_features=1024, out_features=1024, bias=True)
2022-11-28 07:35:26 [1,0]<stderr>:          )
2022-11-28 07:35:26 [1,0]<stderr>:          (activation_dropout_module): FairseqDropout()
2022-11-28 07:35:26 [1,0]<stderr>:          (self_attn_layer_norm): FusedLayerNorm(torch.Size([1024]), eps=1e-05, elementwise_affine=True)
2022-11-28 07:35:26 [1,0]<stderr>:          (fc1): Linear(in_features=1024, out_features=4096, bias=True)
2022-11-28 07:35:26 [1,0]<stderr>:          (fc2): Linear(in_features=4096, out_features=1024, bias=True)
2022-11-28 07:35:26 [1,0]<stderr>:          (final_layer_norm): FusedLayerNorm(torch.Size([1024]), eps=1e-05, elementwise_affine=True)
2022-11-28 07:35:26 [1,0]<stderr>:        )
2022-11-28 07:35:26 [1,0]<stderr>:        (5): UniLMLayer(
2022-11-28 07:35:26 [1,0]<stderr>:          (dropout_module): FairseqDropout()
2022-11-28 07:35:26 [1,0]<stderr>:          (self_attn): MultiheadAttention(
2022-11-28 07:35:26 [1,0]<stderr>:            (dropout_module): FairseqDropout()
2022-11-28 07:35:26 [1,0]<stderr>:            (k_proj): Linear(in_features=1024, out_features=1024, bias=True)
2022-11-28 07:35:26 [1,0]<stderr>:            (v_proj): Linear(in_features=1024, out_features=1024, bias=True)
2022-11-28 07:35:26 [1,0]<stderr>:            (q_proj): Linear(in_features=1024, out_features=1024, bias=True)
2022-11-28 07:35:26 [1,0]<stderr>:            (out_proj): Linear(in_features=1024, out_features=1024, bias=True)
2022-11-28 07:35:26 [1,0]<stderr>:          )
2022-11-28 07:35:26 [1,0]<stderr>:          (activation_dropout_module): FairseqDropout()
2022-11-28 07:35:26 [1,0]<stderr>:          (self_attn_layer_norm): FusedLayerNorm(torch.Size([1024]), eps=1e-05, elementwise_affine=True)
2022-11-28 07:35:26 [1,0]<stderr>:          (fc1): Linear(in_features=1024, out_features=4096, bias=True)
2022-11-28 07:35:26 [1,0]<stderr>:          (fc2): Linear(in_features=4096, out_features=1024, bias=True)
2022-11-28 07:35:26 [1,0]<stderr>:          (final_layer_norm): FusedLayerNorm(torch.Size([1024]), eps=1e-05, elementwise_affine=True)
2022-11-28 07:35:26 [1,0]<stderr>:        )
2022-11-28 07:35:26 [1,0]<stderr>:        (6): UniLMLayer(
2022-11-28 07:35:26 [1,0]<stderr>:          (dropout_module): FairseqDropout()
2022-11-28 07:35:26 [1,0]<stderr>:          (self_attn): MultiheadAttention(
2022-11-28 07:35:26 [1,0]<stderr>:            (dropout_module): FairseqDropout()
2022-11-28 07:35:26 [1,0]<stderr>:            (k_proj): Linear(in_features=1024, out_features=1024, bias=True)
2022-11-28 07:35:26 [1,0]<stderr>:            (v_proj): Linear(in_features=1024, out_features=1024, bias=True)
2022-11-28 07:35:26 [1,0]<stderr>:            (q_proj): Linear(in_features=1024, out_features=1024, bias=True)
2022-11-28 07:35:26 [1,0]<stderr>:            (out_proj): Linear(in_features=1024, out_features=1024, bias=True)
2022-11-28 07:35:26 [1,0]<stderr>:          )
2022-11-28 07:35:26 [1,0]<stderr>:          (activation_dropout_module): FairseqDropout()
2022-11-28 07:35:26 [1,0]<stderr>:          (self_attn_layer_norm): FusedLayerNorm(torch.Size([1024]), eps=1e-05, elementwise_affine=True)
2022-11-28 07:35:26 [1,0]<stderr>:          (fc1): Linear(in_features=1024, out_features=4096, bias=True)
2022-11-28 07:35:26 [1,0]<stderr>:          (fc2): Linear(in_features=4096, out_features=1024, bias=True)
2022-11-28 07:35:26 [1,0]<stderr>:          (final_layer_norm): FusedLayerNorm(torch.Size([1024]), eps=1e-05, elementwise_affine=True)
2022-11-28 07:35:26 [1,0]<stderr>:        )
2022-11-28 07:35:26 [1,0]<stderr>:        (7): UniLMLayer(
2022-11-28 07:35:26 [1,0]<stderr>:          (dropout_module): FairseqDropout()
2022-11-28 07:35:26 [1,0]<stderr>:          (self_attn): MultiheadAttention(
2022-11-28 07:35:26 [1,0]<stderr>:            (dropout_module): FairseqDropout()
2022-11-28 07:35:26 [1,0]<stderr>:            (k_proj): Linear(in_features=1024, out_features=1024, bias=True)
2022-11-28 07:35:26 [1,0]<stderr>:            (v_proj): Linear(in_features=1024, out_features=1024, bias=True)
2022-11-28 07:35:26 [1,0]<stderr>:            (q_proj): Linear(in_features=1024, out_features=1024, bias=True)
2022-11-28 07:35:26 [1,0]<stderr>:            (out_proj): Linear(in_features=1024, out_features=1024, bias=True)
2022-11-28 07:35:26 [1,0]<stderr>:          )
2022-11-28 07:35:26 [1,0]<stderr>:          (activation_dropout_module): FairseqDropout()
2022-11-28 07:35:26 [1,0]<stderr>:          (self_attn_layer_norm): FusedLayerNorm(torch.Size([1024]), eps=1e-05, elementwise_affine=True)
2022-11-28 07:35:26 [1,0]<stderr>:          (fc1): Linear(in_features=1024, out_features=4096, bias=True)
2022-11-28 07:35:26 [1,0]<stderr>:          (fc2): Linear(in_features=4096, out_features=1024, bias=True)
2022-11-28 07:35:26 [1,0]<stderr>:          (final_layer_norm): FusedLayerNorm(torch.Size([1024]), eps=1e-05, elementwise_affine=True)
2022-11-28 07:35:26 [1,0]<stderr>:        )
2022-11-28 07:35:26 [1,0]<stderr>:        (8): UniLMLayer(
2022-11-28 07:35:26 [1,0]<stderr>:          (dropout_module): FairseqDropout()
2022-11-28 07:35:26 [1,0]<stderr>:          (self_attn): MultiheadAttention(
2022-11-28 07:35:26 [1,0]<stderr>:            (dropout_module): FairseqDropout()
2022-11-28 07:35:26 [1,0]<stderr>:            (k_proj): Linear(in_features=1024, out_features=1024, bias=True)
2022-11-28 07:35:26 [1,0]<stderr>:            (v_proj): Linear(in_features=1024, out_features=1024, bias=True)
2022-11-28 07:35:26 [1,0]<stderr>:            (q_proj): Linear(in_features=1024, out_features=1024, bias=True)
2022-11-28 07:35:26 [1,0]<stderr>:            (out_proj): Linear(in_features=1024, out_features=1024, bias=True)
2022-11-28 07:35:26 [1,0]<stderr>:          )
2022-11-28 07:35:26 [1,0]<stderr>:          (activation_dropout_module): FairseqDropout()
2022-11-28 07:35:26 [1,0]<stderr>:          (self_attn_lay[1,0]<stderr>:er_norm): FusedLayerNorm(torch.Size([1024]), eps=1e-05, elementwise_affine=True)
2022-11-28 07:35:26 [1,0]<stderr>:          (fc1): Linear(in_features=1024, out_features=4096, bias=True)
2022-11-28 07:35:26 [1,0]<stderr>:          (fc2): Linear(in_features=4096, out_features=1024, bias=True)
2022-11-28 07:35:26 [1,0]<stderr>:          (final_layer_norm): FusedLayerNorm(torch.Size([1024]), eps=1e-05, elementwise_affine=True)
2022-11-28 07:35:26 [1,0]<stderr>:        )
2022-11-28 07:35:26 [1,0]<stderr>:        (9): UniLMLayer(
2022-11-28 07:35:26 [1,0]<stderr>:          (dropout_module): FairseqDropout()
2022-11-28 07:35:26 [1,0]<stderr>:          (self_attn): MultiheadAttention(
2022-11-28 07:35:26 [1,0]<stderr>:            (dropout_module): FairseqDropout()
2022-11-28 07:35:26 [1,0]<stderr>:            (k_proj): Linear(in_features=1024, out_features=1024, bias=True)
2022-11-28 07:35:26 [1,0]<stderr>:            (v_proj): Linear(in_features=1024, out_features=1024, bias=True)
2022-11-28 07:35:26 [1,0]<stderr>:            (q_proj): Linear(in_features=1024, out_features=1024, bias=True)
2022-11-28 07:35:26 [1,0]<stderr>:            (out_proj): Linear(in_features=1024, out_features=1024, bias=True)
2022-11-28 07:35:26 [1,0]<stderr>:          )
2022-11-28 07:35:26 [1,0]<stderr>:          (activation_dropout_module): FairseqDropout()
2022-11-28 07:35:26 [1,0]<stderr>:          (self_attn_layer_norm): FusedLayerNorm(torch.Size([1024]), eps=1e-05, elementwise_affine=True)
2022-11-28 07:35:26 [1,0]<stderr>:          (fc1): Linear(in_features=1024, out_features=4096, bias=True)
2022-11-28 07:35:26 [1,0]<stderr>:          (fc2): Linear(in_features=4096, out_features=1024, bias=True)
2022-11-28 07:35:26 [1,0]<stderr>:          (final_layer_norm): FusedLayerNorm(torch.Size([1024]), eps=1e-05, elementwise_affine=True)
2022-11-28 07:35:26 [1,0]<stderr>:        )
2022-11-28 07:35:26 [1,0]<stderr>:        (10): UniLMLayer(
2022-11-28 07:35:26 [1,0]<stderr>:          (dropout_module): FairseqDropout()
2022-11-28 07:35:26 [1,0]<stderr>:          (self_attn): MultiheadAttention(
2022-11-28 07:35:26 [1,0]<stderr>:            (dropout_module): FairseqDropout()
2022-11-28 07:35:26 [1,0]<stderr>:            (k_proj): Linear(in_features=1024, out_features=1024, bias=True)
2022-11-28 07:35:26 [1,0]<stderr>:            (v_proj): Linear(in_features=1024, out_features=1024, bias=True)
2022-11-28 07:35:26 [1,0]<stderr>:            (q_proj): Linear(in_features=1024, out_features=1024, bias=True)
2022-11-28 07:35:26 [1,0]<stderr>:            (out_proj): Linear(in_features=1024, out_features=1024, bias=True)
2022-11-28 07:35:26 [1,0]<stderr>:          )
2022-11-28 07:35:26 [1,0]<stderr>:          (activation_dropout_module): FairseqDropout()
2022-11-28 07:35:26 [1,0]<stderr>:          (self_attn_layer_norm): FusedLayerNorm(torch.Size([1024]), eps=1e-05, elementwise_affine=True)
2022-11-28 07:35:26 [1,0]<stderr>:          (fc1): Linear(in_features=1024, out_features=4096, bias=True)
2022-11-28 07:35:26 [1,0]<stderr>:          (fc2): Linear(in_features=4096, out_features=1024, bias=True)
2022-11-28 07:35:26 [1,0]<stderr>:          (final_layer_norm): FusedLayerNorm(torch.Size([1024]), eps=1e-05, elementwise_affine=True)
2022-11-28 07:35:26 [1,0]<stderr>:        )
2022-11-28 07:35:26 [1,0]<stderr>:        (11): UniLMLayer(
2022-11-28 07:35:26 [1,0]<stderr>:          (dropout_module): FairseqDropout()
2022-11-28 07:35:26 [1,0]<stderr>:          (self_attn): MultiheadAttention(
2022-11-28 07:35:26 [1,0]<stderr>:            (dropout_module): FairseqDropout()
2022-11-28 07:35:26 [1,0]<stderr>:            (k_proj): Linear(in_features=1024, out_features=1024, bias=True)
2022-11-28 07:35:26 [1,0]<stderr>:            (v_proj): Linear(in_features=1024, out_features=1024, bias=True)
2022-11-28 07:35:26 [1,0]<stderr>:            (q_proj): Linear(in_features=1024, out_features=1024, bias=True)
2022-11-28 07:35:26 [1,0]<stderr>:            (out_proj): Linear(in_features=1024, out_features=1024, bias=True)
2022-11-28 07:35:26 [1,0]<stderr>:          )
2022-11-28 07:35:26 [1,0]<stderr>:          (activation_dropout_module): FairseqDropout()
2022-11-28 07:35:26 [1,0]<stderr>:          (self_attn_layer_norm): FusedLayerNorm(torch.Size([1024]), eps=1e-05, elementwise_affine=True)
2022-11-28 07:35:26 [1,0]<stderr>:          (fc1): Linear(in_features=1024, out_features=4096, bias=True)
2022-11-28 07:35:26 [1,0]<stderr>:          (fc2): Linear(in_features=4096, out_features=1024, bias=True)
2022-11-28 07:35:26 [1,0]<stderr>:          (final_layer_norm): FusedLayerNorm(torch.Size([1024]), eps=1e-05, elementwise_affine=True)
2022-11-28 07:35:26 [1,0]<stderr>:        )
2022-11-28 07:35:26 [1,0]<stderr>:        (12): UniLMLayer(
2022-11-28 07:35:26 [1,0]<stderr>:          (dropout_module): FairseqDropout()
2022-11-28 07:35:26 [1,0]<stderr>:          (self_attn): MultiheadAttention(
2022-11-28 07:35:26 [1,0]<stderr>:            (dropout_module): FairseqDropout()
2022-11-28 07:35:26 [1,0]<stderr>:            (k_proj): Linear(in_features=1024, out_features=1024, bias=True)
2022-11-28 07:35:26 [1,0]<stderr>:            (v_proj): Linear(in_features=1024, out_features=1024, bias=True)
2022-11-28 07:35:26 [1,0]<stderr>:            (q_proj): Linear(in_features=1024, out_features=1024, bias=True)
2022-11-28 07:35:26 [1,0]<stderr>:            (out_proj): Linear(in_features=1024, out_features=1024, bias=True)
2022-11-28 07:35:26 [1,0]<stderr>:          )
2022-11-28 07:35:26 [1,0]<stderr>:          (activation_dropout_module): FairseqDropout()
2022-11-28 07:35:26 [1,0]<stderr>:          (self_attn_layer_norm): FusedLayerNorm(torch.Size([1024]), eps=1e-05, elementwise_affine=True)
2022-11-28 07:35:26 [1,0]<stderr>:          (fc1): Linear(in_features=1024, out_features=4096, bias=True)
2022-11-28 07:35:26 [1,0]<stderr>:          (fc2): Linear(in_features=4096, out_features=1024, bias=True)
2022-11-28 07:35:26 [1,0]<stderr>:          (final_layer_norm): FusedLayerNorm(torch.Size([1024]), eps=1e-05, elementwise_affine=True)
2022-11-28 07:35:26 [1,0]<stderr>:        )
2022-11-28 07:35:26 [1,0]<stderr>:        (13): UniLMLayer(
2022-11-28 07:35:26 [1,0]<stderr>:          (dropout_module): FairseqDropout()
2022-11-28 07:35:26 [1,0]<stderr>:          (self_attn): MultiheadAttention(
2022-11-28 07:35:26 [1,0]<stderr>:            (dropout_module): FairseqDropout()
2022-11-28 07:35:26 [1,0]<stderr>:    [1,0]<stderr>:        (k_proj): Linear(in_features=1024, out_features=1024, bias=True)
2022-11-28 07:35:26 [1,0]<stderr>:            (v_proj): Linear(in_features=1024, out_features=1024, bias=True)
2022-11-28 07:35:26 [1,0]<stderr>:            (q_proj): Linear(in_features=1024, out_features=1024, bias=True)
2022-11-28 07:35:26 [1,0]<stderr>:            (out_proj): Linear(in_features=1024, out_features=1024, bias=True)
2022-11-28 07:35:26 [1,0]<stderr>:          )
2022-11-28 07:35:26 [1,0]<stderr>:          (activation_dropout_module): FairseqDropout()
2022-11-28 07:35:26 [1,0]<stderr>:          (self_attn_layer_norm): FusedLayerNorm(torch.Size([1024]), eps=1e-05, elementwise_affine=True)
2022-11-28 07:35:26 [1,0]<stderr>:          (fc1): Linear(in_features=1024, out_features=4096, bias=True)
2022-11-28 07:35:26 [1,0]<stderr>:          (fc2): Linear(in_features=4096, out_features=1024, bias=True)
2022-11-28 07:35:26 [1,0]<stderr>:          (final_layer_norm): FusedLayerNorm(torch.Size([1024]), eps=1e-05, elementwise_affine=True)
2022-11-28 07:35:26 [1,0]<stderr>:        )
2022-11-28 07:35:26 [1,0]<stderr>:        (14): UniLMLayer(
2022-11-28 07:35:26 [1,0]<stderr>:          (dropout_module): FairseqDropout()
2022-11-28 07:35:26 [1,0]<stderr>:          (self_attn): MultiheadAttention(
2022-11-28 07:35:26 [1,0]<stderr>:            (dropout_module): FairseqDropout()
2022-11-28 07:35:26 [1,0]<stderr>:            (k_proj): Linear(in_features=1024, out_features=1024, bias=True)
2022-11-28 07:35:26 [1,0]<stderr>:            (v_proj): Linear(in_features=1024, out_features=1024, bias=True)
2022-11-28 07:35:26 [1,0]<stderr>:            (q_proj): Linear(in_features=1024, out_features=1024, bias=True)
2022-11-28 07:35:26 [1,0]<stderr>:            (out_proj): Linear(in_features=1024, out_features=1024, bias=True)
2022-11-28 07:35:26 [1,0]<stderr>:          )
2022-11-28 07:35:26 [1,0]<stderr>:          (activation_dropout_module): FairseqDropout()
2022-11-28 07:35:26 [1,0]<stderr>:          (self_attn_layer_norm): FusedLayerNorm(torch.Size([1024]), eps=1e-05, elementwise_affine=True)
2022-11-28 07:35:26 [1,0]<stderr>:          (fc1): Linear(in_features=1024, out_features=4096, bias=True)
2022-11-28 07:35:26 [1,0]<stderr>:          (fc2): Linear(in_features=4096, out_features=1024, bias=True)
2022-11-28 07:35:26 [1,0]<stderr>:          (final_layer_norm): FusedLayerNorm(torch.Size([1024]), eps=1e-05, elementwise_affine=True)
2022-11-28 07:35:26 [1,0]<stderr>:        )
2022-11-28 07:35:26 [1,0]<stderr>:        (15): UniLMLayer(
2022-11-28 07:35:26 [1,0]<stderr>:          (dropout_module): FairseqDropout()
2022-11-28 07:35:26 [1,0]<stderr>:          (self_attn): MultiheadAttention(
2022-11-28 07:35:26 [1,0]<stderr>:            (dropout_module): FairseqDropout()
2022-11-28 07:35:26 [1,0]<stderr>:            (k_proj): Linear(in_features=1024, out_features=1024, bias=True)
2022-11-28 07:35:26 [1,0]<stderr>:            (v_proj): Linear(in_features=1024, out_features=1024, bias=True)
2022-11-28 07:35:26 [1,0]<stderr>:            (q_proj): Linear(in_features=1024, out_features=1024, bias=True)
2022-11-28 07:35:26 [1,0]<stderr>:            (out_proj): Linear(in_features=1024, out_features=1024, bias=True)
2022-11-28 07:35:26 [1,0]<stderr>:          )
2022-11-28 07:35:26 [1,0]<stderr>:          (activation_dropout_module): FairseqDropout()
2022-11-28 07:35:26 [1,0]<stderr>:          (self_attn_layer_norm): FusedLayerNorm(torch.Size([1024]), eps=1e-05, elementwise_affine=True)
2022-11-28 07:35:26 [1,0]<stderr>:          (fc1): Linear(in_features=1024, out_features=4096, bias=True)
2022-11-28 07:35:26 [1,0]<stderr>:          (fc2): Linear(in_features=4096, out_features=1024, bias=True)
2022-11-28 07:35:26 [1,0]<stderr>:          (final_layer_norm): FusedLayerNorm(torch.Size([1024]), eps=1e-05, elementwise_affine=True)
2022-11-28 07:35:26 [1,0]<stderr>:        )
2022-11-28 07:35:26 [1,0]<stderr>:        (16): UniLMLayer(
2022-11-28 07:35:26 [1,0]<stderr>:          (dropout_module): FairseqDropout()
2022-11-28 07:35:26 [1,0]<stderr>:          (self_attn): MultiheadAttention(
2022-11-28 07:35:26 [1,0]<stderr>:            (dropout_module): FairseqDropout()
2022-11-28 07:35:26 [1,0]<stderr>:            (k_proj): Linear(in_features=1024, out_features=1024, bias=True)
2022-11-28 07:35:26 [1,0]<stderr>:            (v_proj): Linear(in_features=1024, out_features=1024, bias=True)
2022-11-28 07:35:26 [1,0]<stderr>:            (q_proj): Linear(in_features=1024, out_features=1024, bias=True)
2022-11-28 07:35:26 [1,0]<stderr>:            (out_proj): Linear(in_features=1024, out_features=1024, bias=True)
2022-11-28 07:35:26 [1,0]<stderr>:          )
2022-11-28 07:35:26 [1,0]<stderr>:          (activation_dropout_module): FairseqDropout()
2022-11-28 07:35:26 [1,0]<stderr>:          (self_attn_layer_norm): FusedLayerNorm(torch.Size([1024]), eps=1e-05, elementwise_affine=True)
2022-11-28 07:35:26 [1,0]<stderr>:          (fc1): Linear(in_features=1024, out_features=4096, bias=True)
2022-11-28 07:35:26 [1,0]<stderr>:          (fc2): Linear(in_features=4096, out_features=1024, bias=True)
2022-11-28 07:35:26 [1,0]<stderr>:          (final_layer_norm): FusedLayerNorm(torch.Size([1024]), eps=1e-05, elementwise_affine=True)
2022-11-28 07:35:26 [1,0]<stderr>:        )
2022-11-28 07:35:26 [1,0]<stderr>:        (17): UniLMLayer(
2022-11-28 07:35:26 [1,0]<stderr>:          (dropout_module): FairseqDropout()
2022-11-28 07:35:26 [1,0]<stderr>:          (self_attn): MultiheadAttention(
2022-11-28 07:35:26 [1,0]<stderr>:            (dropout_module): FairseqDropout()
2022-11-28 07:35:26 [1,0]<stderr>:            (k_proj): Linear(in_features=1024, out_features=1024, bias=True)
2022-11-28 07:35:26 [1,0]<stderr>:            (v_proj): Linear(in_features=1024, out_features=1024, bias=True)
2022-11-28 07:35:26 [1,0]<stderr>:            (q_proj): Linear(in_features=1024, out_features=1024, bias=True)
2022-11-28 07:35:26 [1,0]<stderr>:            (out_proj): Linear(in_features=1024, out_features=1024, bias=True)
2022-11-28 07:35:26 [1,0]<stderr>:          )
2022-11-28 07:35:26 [1,0]<stderr>:          (activation_dropout_module): FairseqDropout()
2022-11-28 07:35:26 [1,0]<stderr>:          (self_attn_layer_norm): FusedLayerNorm(torch.Size([1024]), eps=1e-05, elementwise_affine=True)
2022-11-28 07:35:26 [1,0]<stderr>:          (fc1): Line[1,0]<stderr>:ar(in_features=1024, out_features=4096, bias=True)
2022-11-28 07:35:26 [1,0]<stderr>:          (fc2): Linear(in_features=4096, out_features=1024, bias=True)
2022-11-28 07:35:26 [1,0]<stderr>:          (final_layer_norm): FusedLayerNorm(torch.Size([1024]), eps=1e-05, elementwise_affine=True)
2022-11-28 07:35:26 [1,0]<stderr>:        )
2022-11-28 07:35:26 [1,0]<stderr>:        (18): UniLMLayer(
2022-11-28 07:35:26 [1,0]<stderr>:          (dropout_module): FairseqDropout()
2022-11-28 07:35:26 [1,0]<stderr>:          (self_attn): MultiheadAttention(
2022-11-28 07:35:26 [1,0]<stderr>:            (dropout_module): FairseqDropout()
2022-11-28 07:35:26 [1,0]<stderr>:            (k_proj): Linear(in_features=1024, out_features=1024, bias=True)
2022-11-28 07:35:26 [1,0]<stderr>:            (v_proj): Linear(in_features=1024, out_features=1024, bias=True)
2022-11-28 07:35:26 [1,0]<stderr>:            (q_proj): Linear(in_features=1024, out_features=1024, bias=True)
2022-11-28 07:35:26 [1,0]<stderr>:            (out_proj): Linear(in_features=1024, out_features=1024, bias=True)
2022-11-28 07:35:26 [1,0]<stderr>:          )
2022-11-28 07:35:26 [1,0]<stderr>:          (activation_dropout_module): FairseqDropout()
2022-11-28 07:35:26 [1,0]<stderr>:          (self_attn_layer_norm): FusedLayerNorm(torch.Size([1024]), eps=1e-05, elementwise_affine=True)
2022-11-28 07:35:26 [1,0]<stderr>:          (fc1): Linear(in_features=1024, out_features=4096, bias=True)
2022-11-28 07:35:26 [1,0]<stderr>:          (fc2): Linear(in_features=4096, out_features=1024, bias=True)
2022-11-28 07:35:26 [1,0]<stderr>:          (final_layer_norm): FusedLayerNorm(torch.Size([1024]), eps=1e-05, elementwise_affine=True)
2022-11-28 07:35:26 [1,0]<stderr>:        )
2022-11-28 07:35:26 [1,0]<stderr>:        (19): UniLMLayer(
2022-11-28 07:35:26 [1,0]<stderr>:          (dropout_module): FairseqDropout()
2022-11-28 07:35:26 [1,0]<stderr>:          (self_attn): MultiheadAttention(
2022-11-28 07:35:26 [1,0]<stderr>:            (dropout_module): FairseqDropout()
2022-11-28 07:35:26 [1,0]<stderr>:            (k_proj): Linear(in_features=1024, out_features=1024, bias=True)
2022-11-28 07:35:26 [1,0]<stderr>:            (v_proj): Linear(in_features=1024, out_features=1024, bias=True)
2022-11-28 07:35:26 [1,0]<stderr>:            (q_proj): Linear(in_features=1024, out_features=1024, bias=True)
2022-11-28 07:35:26 [1,0]<stderr>:            (out_proj): Linear(in_features=1024, out_features=1024, bias=True)
2022-11-28 07:35:26 [1,0]<stderr>:          )
2022-11-28 07:35:26 [1,0]<stderr>:          (activation_dropout_module): FairseqDropout()
2022-11-28 07:35:26 [1,0]<stderr>:          (self_attn_layer_norm): FusedLayerNorm(torch.Size([1024]), eps=1e-05, elementwise_affine=True)
2022-11-28 07:35:26 [1,0]<stderr>:          (fc1): Linear(in_features=1024, out_features=4096, bias=True)
2022-11-28 07:35:26 [1,0]<stderr>:          (fc2): Linear(in_features=4096, out_features=1024, bias=True)
2022-11-28 07:35:26 [1,0]<stderr>:          (final_layer_norm): FusedLayerNorm(torch.Size([1024]), eps=1e-05, elementwise_affine=True)
2022-11-28 07:35:26 [1,0]<stderr>:        )
2022-11-28 07:35:26 [1,0]<stderr>:        (20): UniLMLayer(
2022-11-28 07:35:26 [1,0]<stderr>:          (dropout_module): FairseqDropout()
2022-11-28 07:35:26 [1,0]<stderr>:          (self_attn): MultiheadAttention(
2022-11-28 07:35:26 [1,0]<stderr>:            (dropout_module): FairseqDropout()
2022-11-28 07:35:26 [1,0]<stderr>:            (k_proj): Linear(in_features=1024, out_features=1024, bias=True)
2022-11-28 07:35:26 [1,0]<stderr>:            (v_proj): Linear(in_features=1024, out_features=1024, bias=True)
2022-11-28 07:35:26 [1,0]<stderr>:            (q_proj): Linear(in_features=1024, out_features=1024, bias=True)
2022-11-28 07:35:26 [1,0]<stderr>:            (out_proj): Linear(in_features=1024, out_features=1024, bias=True)
2022-11-28 07:35:26 [1,0]<stderr>:          )
2022-11-28 07:35:26 [1,0]<stderr>:          (activation_dropout_module): FairseqDropout()
2022-11-28 07:35:26 [1,0]<stderr>:          (self_attn_layer_norm): FusedLayerNorm(torch.Size([1024]), eps=1e-05, elementwise_affine=True)
2022-11-28 07:35:26 [1,0]<stderr>:          (fc1): Linear(in_features=1024, out_features=4096, bias=True)
2022-11-28 07:35:26 [1,0]<stderr>:          (fc2): Linear(in_features=4096, out_features=1024, bias=True)
2022-11-28 07:35:26 [1,0]<stderr>:          (final_layer_norm): FusedLayerNorm(torch.Size([1024]), eps=1e-05, elementwise_affine=True)
2022-11-28 07:35:26 [1,0]<stderr>:        )
2022-11-28 07:35:26 [1,0]<stderr>:        (21): UniLMLayer(
2022-11-28 07:35:26 [1,0]<stderr>:          (dropout_module): FairseqDropout()
2022-11-28 07:35:26 [1,0]<stderr>:          (self_attn): MultiheadAttention(
2022-11-28 07:35:26 [1,0]<stderr>:            (dropout_module): FairseqDropout()
2022-11-28 07:35:26 [1,0]<stderr>:            (k_proj): Linear(in_features=1024, out_features=1024, bias=True)
2022-11-28 07:35:26 [1,0]<stderr>:            (v_proj): Linear(in_features=1024, out_features=1024, bias=True)
2022-11-28 07:35:26 [1,0]<stderr>:            (q_proj): Linear(in_features=1024, out_features=1024, bias=True)
2022-11-28 07:35:26 [1,0]<stderr>:            (out_proj): Linear(in_features=1024, out_features=1024, bias=True)
2022-11-28 07:35:26 [1,0]<stderr>:          )
2022-11-28 07:35:26 [1,0]<stderr>:          (activation_dropout_module): FairseqDropout()
2022-11-28 07:35:26 [1,0]<stderr>:          (self_attn_layer_norm): FusedLayerNorm(torch.Size([1024]), eps=1e-05, elementwise_affine=True)
2022-11-28 07:35:26 [1,0]<stderr>:          (fc1): Linear(in_features=1024, out_features=4096, bias=True)
2022-11-28 07:35:26 [1,0]<stderr>:          (fc2): Linear(in_features=4096, out_features=1024, bias=True)
2022-11-28 07:35:26 [1,0]<stderr>:          (final_layer_norm): FusedLayerNorm(torch.Size([1024]), eps=1e-05, elementwise_affine=True)
2022-11-28 07:35:26 [1,0]<stderr>:        )
2022-11-28 07:35:26 [1,0]<stderr>:        (22): UniLMLayer(
2022-11-28 07:35:26 [1,0]<stderr>:          (dropout_module): FairseqDropout()
2022-11-28 07:35:26 [1,0]<stderr>:          (self_attn): MultiheadAttention(
2022-11-28 07:35:26 [1,0]<stderr>:            (dropout_module): FairseqDropout()
2022-11-28 07:35:26 [1,0]<stderr>:            (k_proj): Linear(in_features=1024, out_features=1024, bias=True)
2022-11-28 07:35:26 [1,0]<stderr>:            (v_proj): Linear[1,0]<stderr>:(in_features=1024, out_features=1024, bias=True)
2022-11-28 07:35:26 [1,0]<stderr>:            (q_proj): Linear(in_features=1024, out_features=1024, bias=True)
2022-11-28 07:35:26 [1,0]<stderr>:            (out_proj): Linear(in_features=1024, out_features=1024, bias=True)
2022-11-28 07:35:26 [1,0]<stderr>:          )
2022-11-28 07:35:26 [1,0]<stderr>:          (activation_dropout_module): FairseqDropout()
2022-11-28 07:35:26 [1,0]<stderr>:          (self_attn_layer_norm): FusedLayerNorm(torch.Size([1024]), eps=1e-05, elementwise_affine=True)
2022-11-28 07:35:26 [1,0]<stderr>:          (fc1): Linear(in_features=1024, out_features=4096, bias=True)
2022-11-28 07:35:26 [1,0]<stderr>:          (fc2): Linear(in_features=4096, out_features=1024, bias=True)
2022-11-28 07:35:26 [1,0]<stderr>:          (final_layer_norm): FusedLayerNorm(torch.Size([1024]), eps=1e-05, elementwise_affine=True)
2022-11-28 07:35:26 [1,0]<stderr>:        )
2022-11-28 07:35:26 [1,0]<stderr>:        (23): UniLMLayer(
2022-11-28 07:35:26 [1,0]<stderr>:          (dropout_module): FairseqDropout()
2022-11-28 07:35:26 [1,0]<stderr>:          (self_attn): MultiheadAttention(
2022-11-28 07:35:26 [1,0]<stderr>:            (dropout_module): FairseqDropout()
2022-11-28 07:35:26 [1,0]<stderr>:            (k_proj): Linear(in_features=1024, out_features=1024, bias=True)
2022-11-28 07:35:26 [1,0]<stderr>:            (v_proj): Linear(in_features=1024, out_features=1024, bias=True)
2022-11-28 07:35:26 [1,0]<stderr>:            (q_proj): Linear(in_features=1024, out_features=1024, bias=True)
2022-11-28 07:35:26 [1,0]<stderr>:            (out_proj): Linear(in_features=1024, out_features=1024, bias=True)
2022-11-28 07:35:26 [1,0]<stderr>:          )
2022-11-28 07:35:26 [1,0]<stderr>:          (activation_dropout_module): FairseqDropout()
2022-11-28 07:35:26 [1,0]<stderr>:          (self_attn_layer_norm): FusedLayerNorm(torch.Size([1024]), eps=1e-05, elementwise_affine=True)
2022-11-28 07:35:26 [1,0]<stderr>:          (fc1): Linear(in_features=1024, out_features=4096, bias=True)
2022-11-28 07:35:26 [1,0]<stderr>:          (fc2): Linear(in_features=4096, out_features=1024, bias=True)
2022-11-28 07:35:26 [1,0]<stderr>:          (final_layer_norm): FusedLayerNorm(torch.Size([1024]), eps=1e-05, elementwise_affine=True)
2022-11-28 07:35:26 [1,0]<stderr>:        )
2022-11-28 07:35:26 [1,0]<stderr>:      )
2022-11-28 07:35:26 [1,0]<stderr>:      (relative_position): RelativePositionBias(
2022-11-28 07:35:26 [1,0]<stderr>:        (relative_attention_bias): Embedding(32, 16)
2022-11-28 07:35:26 [1,0]<stderr>:      )
2022-11-28 07:35:26 [1,0]<stderr>:    )
2022-11-28 07:35:26 [1,0]<stderr>:    (classification_heads): ModuleDict()
2022-11-28 07:35:26 [1,0]<stderr>:  )
2022-11-28 07:35:26 [1,0]<stderr>:  (decoder): ElectraDecoderv6(
2022-11-28 07:35:26 [1,0]<stderr>:    (generator): ElectraDecoderBase(
2022-11-28 07:35:26 [1,0]<stderr>:      (dropout_module): FairseqDropout()
2022-11-28 07:35:26 [1,0]<stderr>:      (embed_tokens): Embedding(250104, 1024, padding_idx=1)
2022-11-28 07:35:26 [1,0]<stderr>:      (embed_positions): LearnedPositionalEmbedding(1026, 1024, padding_idx=1)
2022-11-28 07:35:26 [1,0]<stderr>:      (layernorm_embedding): FusedLayerNorm(torch.Size([1024]), eps=1e-05, elementwise_affine=True)
2022-11-28 07:35:26 [1,0]<stderr>:      (layers): ModuleList(
2022-11-28 07:35:26 [1,0]<stderr>:        (0): TransformerDecoderLayerBase(
2022-11-28 07:35:26 [1,0]<stderr>:          (dropout_module): FairseqDropout()
2022-11-28 07:35:26 [1,0]<stderr>:          (self_attn): MultiheadAttention(
2022-11-28 07:35:26 [1,0]<stderr>:            (dropout_module): FairseqDropout()
2022-11-28 07:35:26 [1,0]<stderr>:            (k_proj): Linear(in_features=1024, out_features=1024, bias=True)
2022-11-28 07:35:26 [1,0]<stderr>:            (v_proj): Linear(in_features=1024, out_features=1024, bias=True)
2022-11-28 07:35:26 [1,0]<stderr>:            (q_proj): Linear(in_features=1024, out_features=1024, bias=True)
2022-11-28 07:35:26 [1,0]<stderr>:            (out_proj): Linear(in_features=1024, out_features=1024, bias=True)
2022-11-28 07:35:26 [1,0]<stderr>:          )
2022-11-28 07:35:26 [1,0]<stderr>:          (activation_dropout_module): FairseqDropout()
2022-11-28 07:35:26 [1,0]<stderr>:          (self_attn_layer_norm): FusedLayerNorm(torch.Size([1024]), eps=1e-05, elementwise_affine=True)
2022-11-28 07:35:26 [1,0]<stderr>:          (encoder_attn): MultiheadAttention(
2022-11-28 07:35:26 [1,0]<stderr>:            (dropout_module): FairseqDropout()
2022-11-28 07:35:26 [1,0]<stderr>:            (k_proj): Linear(in_features=1024, out_features=1024, bias=True)
2022-11-28 07:35:26 [1,0]<stderr>:            (v_proj): Linear(in_features=1024, out_features=1024, bias=True)
2022-11-28 07:35:26 [1,0]<stderr>:            (q_proj): Linear(in_features=1024, out_features=1024, bias=True)
2022-11-28 07:35:26 [1,0]<stderr>:            (out_proj): Linear(in_features=1024, out_features=1024, bias=True)
2022-11-28 07:35:26 [1,0]<stderr>:          )
2022-11-28 07:35:26 [1,0]<stderr>:          (encoder_attn_layer_norm): FusedLayerNorm(torch.Size([1024]), eps=1e-05, elementwise_affine=True)
2022-11-28 07:35:26 [1,0]<stderr>:          (fc1): Linear(in_features=1024, out_features=4096, bias=True)
2022-11-28 07:35:26 [1,0]<stderr>:          (fc2): Linear(in_features=4096, out_features=1024, bias=True)
2022-11-28 07:35:26 [1,0]<stderr>:          (final_layer_norm): FusedLayerNorm(torch.Size([1024]), eps=1e-05, elementwise_affine=True)
2022-11-28 07:35:26 [1,0]<stderr>:        )
2022-11-28 07:35:26 [1,0]<stderr>:        (1): TransformerDecoderLayerBase(
2022-11-28 07:35:26 [1,0]<stderr>:          (dropout_module): FairseqDropout()
2022-11-28 07:35:26 [1,0]<stderr>:          (self_attn): MultiheadAttention(
2022-11-28 07:35:26 [1,0]<stderr>:            (dropout_module): FairseqDropout()
2022-11-28 07:35:26 [1,0]<stderr>:            (k_proj): Linear(in_features=1024, out_features=1024, bias=True)
2022-11-28 07:35:26 [1,0]<stderr>:            (v_proj): Linear(in_features=1024, out_features=1024, bias=True)
2022-11-28 07:35:26 [1,0]<stderr>:            (q_proj): Linear(in_features=1024, out_features=1024, bias=True)
2022-11-28 07:35:26 [1,0]<stderr>:            (out_proj): Linear(in_features=1024, out_features=1024, bias=True)
2022-11-28 07:35:26 [1,0]<stderr>:          )
2022-11-28 07:35:26 [1,0]<stderr>:          (activation_dropout_module): FairseqDropout()
2022-11-28 07:35:26 [1,0]<stderr>:          (self_attn_laye[1,0]<stderr>:r_norm): FusedLayerNorm(torch.Size([1024]), eps=1e-05, elementwise_affine=True)
2022-11-28 07:35:26 [1,0]<stderr>:          (encoder_attn): MultiheadAttention(
2022-11-28 07:35:26 [1,0]<stderr>:            (dropout_module): FairseqDropout()
2022-11-28 07:35:26 [1,0]<stderr>:            (k_proj): Linear(in_features=1024, out_features=1024, bias=True)
2022-11-28 07:35:26 [1,0]<stderr>:            (v_proj): Linear(in_features=1024, out_features=1024, bias=True)
2022-11-28 07:35:26 [1,0]<stderr>:            (q_proj): Linear(in_features=1024, out_features=1024, bias=True)
2022-11-28 07:35:26 [1,0]<stderr>:            (out_proj): Linear(in_features=1024, out_features=1024, bias=True)
2022-11-28 07:35:26 [1,0]<stderr>:          )
2022-11-28 07:35:26 [1,0]<stderr>:          (encoder_attn_layer_norm): FusedLayerNorm(torch.Size([1024]), eps=1e-05, elementwise_affine=True)
2022-11-28 07:35:26 [1,0]<stderr>:          (fc1): Linear(in_features=1024, out_features=4096, bias=True)
2022-11-28 07:35:26 [1,0]<stderr>:          (fc2): Linear(in_features=4096, out_features=1024, bias=True)
2022-11-28 07:35:26 [1,0]<stderr>:          (final_layer_norm): FusedLayerNorm(torch.Size([1024]), eps=1e-05, elementwise_affine=True)
2022-11-28 07:35:26 [1,0]<stderr>:        )
2022-11-28 07:35:26 [1,0]<stderr>:        (2): TransformerDecoderLayerBase(
2022-11-28 07:35:26 [1,0]<stderr>:          (dropout_module): FairseqDropout()
2022-11-28 07:35:26 [1,0]<stderr>:          (self_attn): MultiheadAttention(
2022-11-28 07:35:26 [1,0]<stderr>:            (dropout_module): FairseqDropout()
2022-11-28 07:35:26 [1,0]<stderr>:            (k_proj): Linear(in_features=1024, out_features=1024, bias=True)
2022-11-28 07:35:26 [1,0]<stderr>:            (v_proj): Linear(in_features=1024, out_features=1024, bias=True)
2022-11-28 07:35:26 [1,0]<stderr>:            (q_proj): Linear(in_features=1024, out_features=1024, bias=True)
2022-11-28 07:35:26 [1,0]<stderr>:            (out_proj): Linear(in_features=1024, out_features=1024, bias=True)
2022-11-28 07:35:26 [1,0]<stderr>:          )
2022-11-28 07:35:26 [1,0]<stderr>:          (activation_dropout_module): FairseqDropout()
2022-11-28 07:35:26 [1,0]<stderr>:          (self_attn_layer_norm): FusedLayerNorm(torch.Size([1024]), eps=1e-05, elementwise_affine=True)
2022-11-28 07:35:26 [1,0]<stderr>:          (encoder_attn): MultiheadAttention(
2022-11-28 07:35:26 [1,0]<stderr>:            (dropout_module): FairseqDropout()
2022-11-28 07:35:26 [1,0]<stderr>:            (k_proj): Linear(in_features=1024, out_features=1024, bias=True)
2022-11-28 07:35:26 [1,0]<stderr>:            (v_proj): Linear(in_features=1024, out_features=1024, bias=True)
2022-11-28 07:35:26 [1,0]<stderr>:            (q_proj): Linear(in_features=1024, out_features=1024, bias=True)
2022-11-28 07:35:26 [1,0]<stderr>:            (out_proj): Linear(in_features=1024, out_features=1024, bias=True)
2022-11-28 07:35:26 [1,0]<stderr>:          )
2022-11-28 07:35:26 [1,0]<stderr>:          (encoder_attn_layer_norm): FusedLayerNorm(torch.Size([1024]), eps=1e-05, elementwise_affine=True)
2022-11-28 07:35:26 [1,0]<stderr>:          (fc1): Linear(in_features=1024, out_features=4096, bias=True)
2022-11-28 07:35:26 [1,0]<stderr>:          (fc2): Linear(in_features=4096, out_features=1024, bias=True)
2022-11-28 07:35:26 [1,0]<stderr>:          (final_layer_norm): FusedLayerNorm(torch.Size([1024]), eps=1e-05, elementwise_affine=True)
2022-11-28 07:35:26 [1,0]<stderr>:        )
2022-11-28 07:35:26 [1,0]<stderr>:        (3): TransformerDecoderLayerBase(
2022-11-28 07:35:26 [1,0]<stderr>:          (dropout_module): FairseqDropout()
2022-11-28 07:35:26 [1,0]<stderr>:          (self_attn): MultiheadAttention(
2022-11-28 07:35:26 [1,0]<stderr>:            (dropout_module): FairseqDropout()
2022-11-28 07:35:26 [1,0]<stderr>:            (k_proj): Linear(in_features=1024, out_features=1024, bias=True)
2022-11-28 07:35:26 [1,0]<stderr>:            (v_proj): Linear(in_features=1024, out_features=1024, bias=True)
2022-11-28 07:35:26 [1,0]<stderr>:            (q_proj): Linear(in_features=1024, out_features=1024, bias=True)
2022-11-28 07:35:26 [1,0]<stderr>:            (out_proj): Linear(in_features=1024, out_features=1024, bias=True)
2022-11-28 07:35:26 [1,0]<stderr>:          )
2022-11-28 07:35:26 [1,0]<stderr>:          (activation_dropout_module): FairseqDropout()
2022-11-28 07:35:26 [1,0]<stderr>:          (self_attn_layer_norm): FusedLayerNorm(torch.Size([1024]), eps=1e-05, elementwise_affine=True)
2022-11-28 07:35:26 [1,0]<stderr>:          (encoder_attn): MultiheadAttention(
2022-11-28 07:35:26 [1,0]<stderr>:            (dropout_module): FairseqDropout()
2022-11-28 07:35:26 [1,0]<stderr>:            (k_proj): Linear(in_features=1024, out_features=1024, bias=True)
2022-11-28 07:35:26 [1,0]<stderr>:            (v_proj): Linear(in_features=1024, out_features=1024, bias=True)
2022-11-28 07:35:26 [1,0]<stderr>:            (q_proj): Linear(in_features=1024, out_features=1024, bias=True)
2022-11-28 07:35:26 [1,0]<stderr>:            (out_proj): Linear(in_features=1024, out_features=1024, bias=True)
2022-11-28 07:35:26 [1,0]<stderr>:          )
2022-11-28 07:35:26 [1,0]<stderr>:          (encoder_attn_layer_norm): FusedLayerNorm(torch.Size([1024]), eps=1e-05, elementwise_affine=True)
2022-11-28 07:35:26 [1,0]<stderr>:          (fc1): Linear(in_features=1024, out_features=4096, bias=True)
2022-11-28 07:35:26 [1,0]<stderr>:          (fc2): Linear(in_features=4096, out_features=1024, bias=True)
2022-11-28 07:35:26 [1,0]<stderr>:          (final_layer_norm): FusedLayerNorm(torch.Size([1024]), eps=1e-05, elementwise_affine=True)
2022-11-28 07:35:26 [1,0]<stderr>:        )
2022-11-28 07:35:26 [1,0]<stderr>:        (4): TransformerDecoderLayerBase(
2022-11-28 07:35:26 [1,0]<stderr>:          (dropout_module): FairseqDropout()
2022-11-28 07:35:26 [1,0]<stderr>:          (self_attn): MultiheadAttention(
2022-11-28 07:35:26 [1,0]<stderr>:            (dropout_module): FairseqDropout()
2022-11-28 07:35:26 [1,0]<stderr>:            (k_proj): Linear(in_features=1024, out_features=1024, bias=True)
2022-11-28 07:35:26 [1,0]<stderr>:            (v_proj): Linear(in_features=1024, out_features=1024, bias=True)
2022-11-28 07:35:26 [1,0]<stderr>:            (q_proj): Linear(in[1,0]<stderr>:_features=1024, out_features=1024, bias=True)
2022-11-28 07:35:26 [1,0]<stderr>:            (out_proj): Linear(in_features=1024, out_features=1024, bias=True)
2022-11-28 07:35:26 [1,0]<stderr>:          )
2022-11-28 07:35:26 [1,0]<stderr>:          (activation_dropout_module): FairseqDropout()
2022-11-28 07:35:26 [1,0]<stderr>:          (self_attn_layer_norm): FusedLayerNorm(torch.Size([1024]), eps=1e-05, elementwise_affine=True)
2022-11-28 07:35:26 [1,0]<stderr>:          (encoder_attn): MultiheadAttention(
2022-11-28 07:35:26 [1,0]<stderr>:            (dropout_module): FairseqDropout()
2022-11-28 07:35:26 [1,0]<stderr>:            (k_proj): Linear(in_features=1024, out_features=1024, bias=True)
2022-11-28 07:35:26 [1,0]<stderr>:            (v_proj): Linear(in_features=1024, out_features=1024, bias=True)
2022-11-28 07:35:26 [1,0]<stderr>:            (q_proj): Linear(in_features=1024, out_features=1024, bias=True)
2022-11-28 07:35:26 [1,0]<stderr>:            (out_proj): Linear(in_features=1024, out_features=1024, bias=True)
2022-11-28 07:35:26 [1,0]<stderr>:          )
2022-11-28 07:35:26 [1,0]<stderr>:          (encoder_attn_layer_norm): FusedLayerNorm(torch.Size([1024]), eps=1e-05, elementwise_affine=True)
2022-11-28 07:35:26 [1,0]<stderr>:          (fc1): Linear(in_features=1024, out_features=4096, bias=True)
2022-11-28 07:35:26 [1,0]<stderr>:          (fc2): Linear(in_features=4096, out_features=1024, bias=True)
2022-11-28 07:35:26 [1,0]<stderr>:          (final_layer_norm): FusedLayerNorm(torch.Size([1024]), eps=1e-05, elementwise_affine=True)
2022-11-28 07:35:26 [1,0]<stderr>:        )
2022-11-28 07:35:26 [1,0]<stderr>:        (5): TransformerDecoderLayerBase(
2022-11-28 07:35:26 [1,0]<stderr>:          (dropout_module): FairseqDropout()
2022-11-28 07:35:26 [1,0]<stderr>:          (self_attn): MultiheadAttention(
2022-11-28 07:35:26 [1,0]<stderr>:            (dropout_module): FairseqDropout()
2022-11-28 07:35:26 [1,0]<stderr>:            (k_proj): Linear(in_features=1024, out_features=1024, bias=True)
2022-11-28 07:35:26 [1,0]<stderr>:            (v_proj): Linear(in_features=1024, out_features=1024, bias=True)
2022-11-28 07:35:26 [1,0]<stderr>:            (q_proj): Linear(in_features=1024, out_features=1024, bias=True)
2022-11-28 07:35:26 [1,0]<stderr>:            (out_proj): Linear(in_features=1024, out_features=1024, bias=True)
2022-11-28 07:35:26 [1,0]<stderr>:          )
2022-11-28 07:35:26 [1,0]<stderr>:          (activation_dropout_module): FairseqDropout()
2022-11-28 07:35:26 [1,0]<stderr>:          (self_attn_layer_norm): FusedLayerNorm(torch.Size([1024]), eps=1e-05, elementwise_affine=True)
2022-11-28 07:35:26 [1,0]<stderr>:          (encoder_attn): MultiheadAttention(
2022-11-28 07:35:26 [1,0]<stderr>:            (dropout_module): FairseqDropout()
2022-11-28 07:35:26 [1,0]<stderr>:            (k_proj): Linear(in_features=1024, out_features=1024, bias=True)
2022-11-28 07:35:26 [1,0]<stderr>:            (v_proj): Linear(in_features=1024, out_features=1024, bias=True)
2022-11-28 07:35:26 [1,0]<stderr>:            (q_proj): Linear(in_features=1024, out_features=1024, bias=True)
2022-11-28 07:35:26 [1,0]<stderr>:            (out_proj): Linear(in_features=1024, out_features=1024, bias=True)
2022-11-28 07:35:26 [1,0]<stderr>:          )
2022-11-28 07:35:26 [1,0]<stderr>:          (encoder_attn_layer_norm): FusedLayerNorm(torch.Size([1024]), eps=1e-05, elementwise_affine=True)
2022-11-28 07:35:26 [1,0]<stderr>:          (fc1): Linear(in_features=1024, out_features=4096, bias=True)
2022-11-28 07:35:26 [1,0]<stderr>:          (fc2): Linear(in_features=4096, out_features=1024, bias=True)
2022-11-28 07:35:26 [1,0]<stderr>:          (final_layer_norm): FusedLayerNorm(torch.Size([1024]), eps=1e-05, elementwise_affine=True)
2022-11-28 07:35:26 [1,0]<stderr>:        )
2022-11-28 07:35:26 [1,0]<stderr>:        (6): TransformerDecoderLayerBase(
2022-11-28 07:35:26 [1,0]<stderr>:          (dropout_module): FairseqDropout()
2022-11-28 07:35:26 [1,0]<stderr>:          (self_attn): MultiheadAttention(
2022-11-28 07:35:26 [1,0]<stderr>:            (dropout_module): FairseqDropout()
2022-11-28 07:35:26 [1,0]<stderr>:            (k_proj): Linear(in_features=1024, out_features=1024, bias=True)
2022-11-28 07:35:26 [1,0]<stderr>:            (v_proj): Linear(in_features=1024, out_features=1024, bias=True)
2022-11-28 07:35:26 [1,0]<stderr>:            (q_proj): Linear(in_features=1024, out_features=1024, bias=True)
2022-11-28 07:35:26 [1,0]<stderr>:            (out_proj): Linear(in_features=1024, out_features=1024, bias=True)
2022-11-28 07:35:26 [1,0]<stderr>:          )
2022-11-28 07:35:26 [1,0]<stderr>:          (activation_dropout_module): FairseqDropout()
2022-11-28 07:35:26 [1,0]<stderr>:          (self_attn_layer_norm): FusedLayerNorm(torch.Size([1024]), eps=1e-05, elementwise_affine=True)
2022-11-28 07:35:26 [1,0]<stderr>:          (encoder_attn): MultiheadAttention(
2022-11-28 07:35:26 [1,0]<stderr>:            (dropout_module): FairseqDropout()
2022-11-28 07:35:26 [1,0]<stderr>:            (k_proj): Linear(in_features=1024, out_features=1024, bias=True)
2022-11-28 07:35:26 [1,0]<stderr>:            (v_proj): Linear(in_features=1024, out_features=1024, bias=True)
2022-11-28 07:35:26 [1,0]<stderr>:            (q_proj): Linear(in_features=1024, out_features=1024, bias=True)
2022-11-28 07:35:26 [1,0]<stderr>:            (out_proj): Linear(in_features=1024, out_features=1024, bias=True)
2022-11-28 07:35:26 [1,0]<stderr>:          )
2022-11-28 07:35:26 [1,0]<stderr>:          (encoder_attn_layer_norm): FusedLayerNorm(torch.Size([1024]), eps=1e-05, elementwise_affine=True)
2022-11-28 07:35:26 [1,0]<stderr>:          (fc1): Linear(in_features=1024, out_features=4096, bias=True)
2022-11-28 07:35:26 [1,0]<stderr>:          (fc2): Linear(in_features=4096, out_features=1024, bias=True)
2022-11-28 07:35:26 [1,0]<stderr>:          (final_layer_norm): FusedLayerNorm(torch.Size([1024]), eps=1e-05, elementwise_affine=True)
2022-11-28 07:35:26 [1,0]<stderr>:        )
2022-11-28 07:35:26 [1,0]<stderr>:        (7): TransformerDecoderLayerBase(
2022-11-28 07:35:26 [1,0]<stderr>:          (dropout_module): FairseqDropout()
2022-11-28 07:35:26 [1,0]<stderr>:          (self_attn): MultiheadAttention(
2022-11-28 07:35:26 [1,0]<stderr>:            (d[1,0]<stderr>:ropout_module): FairseqDropout()
2022-11-28 07:35:26 [1,0]<stderr>:            (k_proj): Linear(in_features=1024, out_features=1024, bias=True)
2022-11-28 07:35:26 [1,0]<stderr>:            (v_proj): Linear(in_features=1024, out_features=1024, bias=True)
2022-11-28 07:35:26 [1,0]<stderr>:            (q_proj): Linear(in_features=1024, out_features=1024, bias=True)
2022-11-28 07:35:26 [1,0]<stderr>:            (out_proj): Linear(in_features=1024, out_features=1024, bias=True)
2022-11-28 07:35:26 [1,0]<stderr>:          )
2022-11-28 07:35:26 [1,0]<stderr>:          (activation_dropout_module): FairseqDropout()
2022-11-28 07:35:26 [1,0]<stderr>:          (self_attn_layer_norm): FusedLayerNorm(torch.Size([1024]), eps=1e-05, elementwise_affine=True)
2022-11-28 07:35:26 [1,0]<stderr>:          (encoder_attn): MultiheadAttention(
2022-11-28 07:35:26 [1,0]<stderr>:            (dropout_module): FairseqDropout()
2022-11-28 07:35:26 [1,0]<stderr>:            (k_proj): Linear(in_features=1024, out_features=1024, bias=True)
2022-11-28 07:35:26 [1,0]<stderr>:            (v_proj): Linear(in_features=1024, out_features=1024, bias=True)
2022-11-28 07:35:26 [1,0]<stderr>:            (q_proj): Linear(in_features=1024, out_features=1024, bias=True)
2022-11-28 07:35:26 [1,0]<stderr>:            (out_proj): Linear(in_features=1024, out_features=1024, bias=True)
2022-11-28 07:35:26 [1,0]<stderr>:          )
2022-11-28 07:35:26 [1,0]<stderr>:          (encoder_attn_layer_norm): FusedLayerNorm(torch.Size([1024]), eps=1e-05, elementwise_affine=True)
2022-11-28 07:35:26 [1,0]<stderr>:          (fc1): Linear(in_features=1024, out_features=4096, bias=True)
2022-11-28 07:35:26 [1,0]<stderr>:          (fc2): Linear(in_features=4096, out_features=1024, bias=True)
2022-11-28 07:35:26 [1,0]<stderr>:          (final_layer_norm): FusedLayerNorm(torch.Size([1024]), eps=1e-05, elementwise_affine=True)
2022-11-28 07:35:26 [1,0]<stderr>:        )
2022-11-28 07:35:26 [1,0]<stderr>:        (8): TransformerDecoderLayerBase(
2022-11-28 07:35:26 [1,0]<stderr>:          (dropout_module): FairseqDropout()
2022-11-28 07:35:26 [1,0]<stderr>:          (self_attn): MultiheadAttention(
2022-11-28 07:35:26 [1,0]<stderr>:            (dropout_module): FairseqDropout()
2022-11-28 07:35:26 [1,0]<stderr>:            (k_proj): Linear(in_features=1024, out_features=1024, bias=True)
2022-11-28 07:35:26 [1,0]<stderr>:            (v_proj): Linear(in_features=1024, out_features=1024, bias=True)
2022-11-28 07:35:26 [1,0]<stderr>:            (q_proj): Linear(in_features=1024, out_features=1024, bias=True)
2022-11-28 07:35:26 [1,0]<stderr>:            (out_proj): Linear(in_features=1024, out_features=1024, bias=True)
2022-11-28 07:35:26 [1,0]<stderr>:          )
2022-11-28 07:35:26 [1,0]<stderr>:          (activation_dropout_module): FairseqDropout()
2022-11-28 07:35:26 [1,0]<stderr>:          (self_attn_layer_norm): FusedLayerNorm(torch.Size([1024]), eps=1e-05, elementwise_affine=True)
2022-11-28 07:35:26 [1,0]<stderr>:          (encoder_attn): MultiheadAttention(
2022-11-28 07:35:26 [1,0]<stderr>:            (dropout_module): FairseqDropout()
2022-11-28 07:35:26 [1,0]<stderr>:            (k_proj): Linear(in_features=1024, out_features=1024, bias=True)
2022-11-28 07:35:26 [1,0]<stderr>:            (v_proj): Linear(in_features=1024, out_features=1024, bias=True)
2022-11-28 07:35:26 [1,0]<stderr>:            (q_proj): Linear(in_features=1024, out_features=1024, bias=True)
2022-11-28 07:35:26 [1,0]<stderr>:            (out_proj): Linear(in_features=1024, out_features=1024, bias=True)
2022-11-28 07:35:26 [1,0]<stderr>:          )
2022-11-28 07:35:26 [1,0]<stderr>:          (encoder_attn_layer_norm): FusedLayerNorm(torch.Size([1024]), eps=1e-05, elementwise_affine=True)
2022-11-28 07:35:26 [1,0]<stderr>:          (fc1): Linear(in_features=1024, out_features=4096, bias=True)
2022-11-28 07:35:26 [1,0]<stderr>:          (fc2): Linear(in_features=4096, out_features=1024, bias=True)
2022-11-28 07:35:26 [1,0]<stderr>:          (final_layer_norm): FusedLayerNorm(torch.Size([1024]), eps=1e-05, elementwise_affine=True)
2022-11-28 07:35:26 [1,0]<stderr>:        )
2022-11-28 07:35:26 [1,0]<stderr>:        (9): TransformerDecoderLayerBase(
2022-11-28 07:35:26 [1,0]<stderr>:          (dropout_module): FairseqDropout()
2022-11-28 07:35:26 [1,0]<stderr>:          (self_attn): MultiheadAttention(
2022-11-28 07:35:26 [1,0]<stderr>:            (dropout_module): FairseqDropout()
2022-11-28 07:35:26 [1,0]<stderr>:            (k_proj): Linear(in_features=1024, out_features=1024, bias=True)
2022-11-28 07:35:26 [1,0]<stderr>:            (v_proj): Linear(in_features=1024, out_features=1024, bias=True)
2022-11-28 07:35:26 [1,0]<stderr>:            (q_proj): Linear(in_features=1024, out_features=1024, bias=True)
2022-11-28 07:35:26 [1,0]<stderr>:            (out_proj): Linear(in_features=1024, out_features=1024, bias=True)
2022-11-28 07:35:26 [1,0]<stderr>:          )
2022-11-28 07:35:26 [1,0]<stderr>:          (activation_dropout_module): FairseqDropout()
2022-11-28 07:35:26 [1,0]<stderr>:          (self_attn_layer_norm): FusedLayerNorm(torch.Size([1024]), eps=1e-05, elementwise_affine=True)
2022-11-28 07:35:26 [1,0]<stderr>:          (encoder_attn): MultiheadAttention(
2022-11-28 07:35:26 [1,0]<stderr>:            (dropout_module): FairseqDropout()
2022-11-28 07:35:26 [1,0]<stderr>:            (k_proj): Linear(in_features=1024, out_features=1024, bias=True)
2022-11-28 07:35:26 [1,0]<stderr>:            (v_proj): Linear(in_features=1024, out_features=1024, bias=True)
2022-11-28 07:35:26 [1,0]<stderr>:            (q_proj): Linear(in_features=1024, out_features=1024, bias=True)
2022-11-28 07:35:26 [1,0]<stderr>:            (out_proj): Linear(in_features=1024, out_features=1024, bias=True)
2022-11-28 07:35:26 [1,0]<stderr>:          )
2022-11-28 07:35:26 [1,0]<stderr>:          (encoder_attn_layer_norm): FusedLayerNorm(torch.Size([1024]), eps=1e-05, elementwise_affine=True)
2022-11-28 07:35:26 [1,0]<stderr>:          (fc1): Linear(in_features=1024, out_features=4096, bias=True)
2022-11-28 07:35:26 [1,0]<stderr>:          (fc2): Linear(in_features=4096, out_features=1024, bias=True)
2022-11-28 07:35:26 [1,0]<stderr>:          (final_layer_norm): FusedLa[1,0]<stderr>:yerNorm(torch.Size([1024]), eps=1e-05, elementwise_affine=True)
2022-11-28 07:35:26 [1,0]<stderr>:        )
2022-11-28 07:35:26 [1,0]<stderr>:        (10): TransformerDecoderLayerBase(
2022-11-28 07:35:26 [1,0]<stderr>:          (dropout_module): FairseqDropout()
2022-11-28 07:35:26 [1,0]<stderr>:          (self_attn): MultiheadAttention(
2022-11-28 07:35:26 [1,0]<stderr>:            (dropout_module): FairseqDropout()
2022-11-28 07:35:26 [1,0]<stderr>:            (k_proj): Linear(in_features=1024, out_features=1024, bias=True)
2022-11-28 07:35:26 [1,0]<stderr>:            (v_proj): Linear(in_features=1024, out_features=1024, bias=True)
2022-11-28 07:35:26 [1,0]<stderr>:            (q_proj): Linear(in_features=1024, out_features=1024, bias=True)
2022-11-28 07:35:26 [1,0]<stderr>:            (out_proj): Linear(in_features=1024, out_features=1024, bias=True)
2022-11-28 07:35:26 [1,0]<stderr>:          )
2022-11-28 07:35:26 [1,0]<stderr>:          (activation_dropout_module): FairseqDropout()
2022-11-28 07:35:26 [1,0]<stderr>:          (self_attn_layer_norm): FusedLayerNorm(torch.Size([1024]), eps=1e-05, elementwise_affine=True)
2022-11-28 07:35:26 [1,0]<stderr>:          (encoder_attn): MultiheadAttention(
2022-11-28 07:35:26 [1,0]<stderr>:            (dropout_module): FairseqDropout()
2022-11-28 07:35:26 [1,0]<stderr>:            (k_proj): Linear(in_features=1024, out_features=1024, bias=True)
2022-11-28 07:35:26 [1,0]<stderr>:            (v_proj): Linear(in_features=1024, out_features=1024, bias=True)
2022-11-28 07:35:26 [1,0]<stderr>:            (q_proj): Linear(in_features=1024, out_features=1024, bias=True)
2022-11-28 07:35:26 [1,0]<stderr>:            (out_proj): Linear(in_features=1024, out_features=1024, bias=True)
2022-11-28 07:35:26 [1,0]<stderr>:          )
2022-11-28 07:35:26 [1,0]<stderr>:          (encoder_attn_layer_norm): FusedLayerNorm(torch.Size([1024]), eps=1e-05, elementwise_affine=True)
2022-11-28 07:35:26 [1,0]<stderr>:          (fc1): Linear(in_features=1024, out_features=4096, bias=True)
2022-11-28 07:35:26 [1,0]<stderr>:          (fc2): Linear(in_features=4096, out_features=1024, bias=True)
2022-11-28 07:35:26 [1,0]<stderr>:          (final_layer_norm): FusedLayerNorm(torch.Size([1024]), eps=1e-05, elementwise_affine=True)
2022-11-28 07:35:26 [1,0]<stderr>:        )
2022-11-28 07:35:26 [1,0]<stderr>:        (11): TransformerDecoderLayerBase(
2022-11-28 07:35:26 [1,0]<stderr>:          (dropout_module): FairseqDropout()
2022-11-28 07:35:26 [1,0]<stderr>:          (self_attn): MultiheadAttention(
2022-11-28 07:35:26 [1,0]<stderr>:            (dropout_module): FairseqDropout()
2022-11-28 07:35:26 [1,0]<stderr>:            (k_proj): Linear(in_features=1024, out_features=1024, bias=True)
2022-11-28 07:35:26 [1,0]<stderr>:            (v_proj): Linear(in_features=1024, out_features=1024, bias=True)
2022-11-28 07:35:26 [1,0]<stderr>:            (q_proj): Linear(in_features=1024, out_features=1024, bias=True)
2022-11-28 07:35:26 [1,0]<stderr>:            (out_proj): Linear(in_features=1024, out_features=1024, bias=True)
2022-11-28 07:35:26 [1,0]<stderr>:          )
2022-11-28 07:35:26 [1,0]<stderr>:          (activation_dropout_module): FairseqDropout()
2022-11-28 07:35:26 [1,0]<stderr>:          (self_attn_layer_norm): FusedLayerNorm(torch.Size([1024]), eps=1e-05, elementwise_affine=True)
2022-11-28 07:35:26 [1,0]<stderr>:          (encoder_attn): MultiheadAttention(
2022-11-28 07:35:26 [1,0]<stderr>:            (dropout_module): FairseqDropout()
2022-11-28 07:35:26 [1,0]<stderr>:            (k_proj): Linear(in_features=1024, out_features=1024, bias=True)
2022-11-28 07:35:26 [1,0]<stderr>:            (v_proj): Linear(in_features=1024, out_features=1024, bias=True)
2022-11-28 07:35:26 [1,0]<stderr>:            (q_proj): Linear(in_features=1024, out_features=1024, bias=True)
2022-11-28 07:35:26 [1,0]<stderr>:            (out_proj): Linear(in_features=1024, out_features=1024, bias=True)
2022-11-28 07:35:26 [1,0]<stderr>:          )
2022-11-28 07:35:26 [1,0]<stderr>:          (encoder_attn_layer_norm): FusedLayerNorm(torch.Size([1024]), eps=1e-05, elementwise_affine=True)
2022-11-28 07:35:26 [1,0]<stderr>:          (fc1): Linear(in_features=1024, out_features=4096, bias=True)
2022-11-28 07:35:26 [1,0]<stderr>:          (fc2): Linear(in_features=4096, out_features=1024, bias=True)
2022-11-28 07:35:26 [1,0]<stderr>:          (final_layer_norm): FusedLayerNorm(torch.Size([1024]), eps=1e-05, elementwise_affine=True)
2022-11-28 07:35:26 [1,0]<stderr>:        )
2022-11-28 07:35:26 [1,0]<stderr>:        (12): TransformerDecoderLayerBase(
2022-11-28 07:35:26 [1,0]<stderr>:          (dropout_module): FairseqDropout()
2022-11-28 07:35:26 [1,0]<stderr>:          (self_attn): MultiheadAttention(
2022-11-28 07:35:26 [1,0]<stderr>:            (dropout_module): FairseqDropout()
2022-11-28 07:35:26 [1,0]<stderr>:            (k_proj): Linear(in_features=1024, out_features=1024, bias=True)
2022-11-28 07:35:26 [1,0]<stderr>:            (v_proj): Linear(in_features=1024, out_features=1024, bias=True)
2022-11-28 07:35:26 [1,0]<stderr>:            (q_proj): Linear(in_features=1024, out_features=1024, bias=True)
2022-11-28 07:35:26 [1,0]<stderr>:            (out_proj): Linear(in_features=1024, out_features=1024, bias=True)
2022-11-28 07:35:26 [1,0]<stderr>:          )
2022-11-28 07:35:26 [1,0]<stderr>:          (activation_dropout_module): FairseqDropout()
2022-11-28 07:35:26 [1,0]<stderr>:          (self_attn_layer_norm): FusedLayerNorm(torch.Size([1024]), eps=1e-05, elementwise_affine=True)
2022-11-28 07:35:26 [1,0]<stderr>:          (encoder_attn): MultiheadAttention(
2022-11-28 07:35:26 [1,0]<stderr>:            (dropout_module): FairseqDropout()
2022-11-28 07:35:26 [1,0]<stderr>:            (k_proj): Linear(in_features=1024, out_features=1024, bias=True)
2022-11-28 07:35:26 [1,0]<stderr>:            (v_proj): Linear(in_features=1024, out_features=1024, bias=True)
2022-11-28 07:35:26 [1,0]<stderr>:            (q_proj): Linear(in_features=1024, out_features=1024, bias=True)
2022-11-28 07:35:26 [1,0]<stderr>:            (out_proj): Linear(in_features=1024, out_features=1024, bias=True)
2022-11-28 07:35:26 [1,0]<stderr>:          )
2022-11-28 07:35:26 [1,0]<stderr>:          (encoder_attn_layer_norm): FusedLayerNorm(torch.Size([1024[1,0]<stderr>:]), eps=1e-05, elementwise_affine=True)
2022-11-28 07:35:26 [1,0]<stderr>:          (fc1): Linear(in_features=1024, out_features=4096, bias=True)
2022-11-28 07:35:26 [1,0]<stderr>:          (fc2): Linear(in_features=4096, out_features=1024, bias=True)
2022-11-28 07:35:26 [1,0]<stderr>:          (final_layer_norm): FusedLayerNorm(torch.Size([1024]), eps=1e-05, elementwise_affine=True)
2022-11-28 07:35:26 [1,0]<stderr>:        )
2022-11-28 07:35:26 [1,0]<stderr>:        (13): TransformerDecoderLayerBase(
2022-11-28 07:35:26 [1,0]<stderr>:          (dropout_module): FairseqDropout()
2022-11-28 07:35:26 [1,0]<stderr>:          (self_attn): MultiheadAttention(
2022-11-28 07:35:26 [1,0]<stderr>:            (dropout_module): FairseqDropout()
2022-11-28 07:35:26 [1,0]<stderr>:            (k_proj): Linear(in_features=1024, out_features=1024, bias=True)
2022-11-28 07:35:26 [1,0]<stderr>:            (v_proj): Linear(in_features=1024, out_features=1024, bias=True)
2022-11-28 07:35:26 [1,0]<stderr>:            (q_proj): Linear(in_features=1024, out_features=1024, bias=True)
2022-11-28 07:35:26 [1,0]<stderr>:            (out_proj): Linear(in_features=1024, out_features=1024, bias=True)
2022-11-28 07:35:26 [1,0]<stderr>:          )
2022-11-28 07:35:26 [1,0]<stderr>:          (activation_dropout_module): FairseqDropout()
2022-11-28 07:35:26 [1,0]<stderr>:          (self_attn_layer_norm): FusedLayerNorm(torch.Size([1024]), eps=1e-05, elementwise_affine=True)
2022-11-28 07:35:26 [1,0]<stderr>:          (encoder_attn): MultiheadAttention(
2022-11-28 07:35:26 [1,0]<stderr>:            (dropout_module): FairseqDropout()
2022-11-28 07:35:26 [1,0]<stderr>:            (k_proj): Linear(in_features=1024, out_features=1024, bias=True)
2022-11-28 07:35:26 [1,0]<stderr>:            (v_proj): Linear(in_features=1024, out_features=1024, bias=True)
2022-11-28 07:35:26 [1,0]<stderr>:            (q_proj): Linear(in_features=1024, out_features=1024, bias=True)
2022-11-28 07:35:26 [1,0]<stderr>:            (out_proj): Linear(in_features=1024, out_features=1024, bias=True)
2022-11-28 07:35:26 [1,0]<stderr>:          )
2022-11-28 07:35:26 [1,0]<stderr>:          (encoder_attn_layer_norm): FusedLayerNorm(torch.Size([1024]), eps=1e-05, elementwise_affine=True)
2022-11-28 07:35:26 [1,0]<stderr>:          (fc1): Linear(in_features=1024, out_features=4096, bias=True)
2022-11-28 07:35:26 [1,0]<stderr>:          (fc2): Linear(in_features=4096, out_features=1024, bias=True)
2022-11-28 07:35:26 [1,0]<stderr>:          (final_layer_norm): FusedLayerNorm(torch.Size([1024]), eps=1e-05, elementwise_affine=True)
2022-11-28 07:35:26 [1,0]<stderr>:        )
2022-11-28 07:35:26 [1,0]<stderr>:        (14): TransformerDecoderLayerBase(
2022-11-28 07:35:26 [1,0]<stderr>:          (dropout_module): FairseqDropout()
2022-11-28 07:35:26 [1,0]<stderr>:          (self_attn): MultiheadAttention(
2022-11-28 07:35:26 [1,0]<stderr>:            (dropout_module): FairseqDropout()
2022-11-28 07:35:26 [1,0]<stderr>:            (k_proj): Linear(in_features=1024, out_features=1024, bias=True)
2022-11-28 07:35:26 [1,0]<stderr>:            (v_proj): Linear(in_features=1024, out_features=1024, bias=True)
2022-11-28 07:35:26 [1,0]<stderr>:            (q_proj): Linear(in_features=1024, out_features=1024, bias=True)
2022-11-28 07:35:26 [1,0]<stderr>:            (out_proj): Linear(in_features=1024, out_features=1024, bias=True)
2022-11-28 07:35:26 [1,0]<stderr>:          )
2022-11-28 07:35:26 [1,0]<stderr>:          (activation_dropout_module): FairseqDropout()
2022-11-28 07:35:26 [1,0]<stderr>:          (self_attn_layer_norm): FusedLayerNorm(torch.Size([1024]), eps=1e-05, elementwise_affine=True)
2022-11-28 07:35:26 [1,0]<stderr>:          (encoder_attn): MultiheadAttention(
2022-11-28 07:35:26 [1,0]<stderr>:            (dropout_module): FairseqDropout()
2022-11-28 07:35:26 [1,0]<stderr>:            (k_proj): Linear(in_features=1024, out_features=1024, bias=True)
2022-11-28 07:35:26 [1,0]<stderr>:            (v_proj): Linear(in_features=1024, out_features=1024, bias=True)
2022-11-28 07:35:26 [1,0]<stderr>:            (q_proj): Linear(in_features=1024, out_features=1024, bias=True)
2022-11-28 07:35:26 [1,0]<stderr>:            (out_proj): Linear(in_features=1024, out_features=1024, bias=True)
2022-11-28 07:35:26 [1,0]<stderr>:          )
2022-11-28 07:35:26 [1,0]<stderr>:          (encoder_attn_layer_norm): FusedLayerNorm(torch.Size([1024]), eps=1e-05, elementwise_affine=True)
2022-11-28 07:35:26 [1,0]<stderr>:          (fc1): Linear(in_features=1024, out_features=4096, bias=True)
2022-11-28 07:35:26 [1,0]<stderr>:          (fc2): Linear(in_features=4096, out_features=1024, bias=True)
2022-11-28 07:35:26 [1,0]<stderr>:          (final_layer_norm): FusedLayerNorm(torch.Size([1024]), eps=1e-05, elementwise_affine=True)
2022-11-28 07:35:26 [1,0]<stderr>:        )
2022-11-28 07:35:26 [1,0]<stderr>:        (15): TransformerDecoderLayerBase(
2022-11-28 07:35:26 [1,0]<stderr>:          (dropout_module): FairseqDropout()
2022-11-28 07:35:26 [1,0]<stderr>:          (self_attn): MultiheadAttention(
2022-11-28 07:35:26 [1,0]<stderr>:            (dropout_module): FairseqDropout()
2022-11-28 07:35:26 [1,0]<stderr>:            (k_proj): Linear(in_features=1024, out_features=1024, bias=True)
2022-11-28 07:35:26 [1,0]<stderr>:            (v_proj): Linear(in_features=1024, out_features=1024, bias=True)
2022-11-28 07:35:26 [1,0]<stderr>:            (q_proj): Linear(in_features=1024, out_features=1024, bias=True)
2022-11-28 07:35:26 [1,0]<stderr>:            (out_proj): Linear(in_features=1024, out_features=1024, bias=True)
2022-11-28 07:35:26 [1,0]<stderr>:          )
2022-11-28 07:35:26 [1,0]<stderr>:          (activation_dropout_module): FairseqDropout()
2022-11-28 07:35:26 [1,0]<stderr>:          (self_attn_layer_norm): FusedLayerNorm(torch.Size([1024]), eps=1e-05, elementwise_affine=True)
2022-11-28 07:35:26 [1,0]<stderr>:          (encoder_attn): MultiheadAttention(
2022-11-28 07:35:26 [1,0]<stderr>:            (dropout_module): FairseqDropout()
2022-11-28 07:35:26 [1,0]<stderr>:            (k_proj): Linear(in_features=1024, out_features=1024, bias=True)
2022-11-28 07:35:26 [1,0]<stderr>:            (v_proj): Linear(in_features=1024, out_features=1024, bias=True)
2022-11-28 07:35:26 [1,0]<stderr>:            (q_[1,0]<stderr>:proj): Linear(in_features=1024, out_features=1024, bias=True)
2022-11-28 07:35:26 [1,0]<stderr>:            (out_proj): Linear(in_features=1024, out_features=1024, bias=True)
2022-11-28 07:35:26 [1,0]<stderr>:          )
2022-11-28 07:35:26 [1,0]<stderr>:          (encoder_attn_layer_norm): FusedLayerNorm(torch.Size([1024]), eps=1e-05, elementwise_affine=True)
2022-11-28 07:35:26 [1,0]<stderr>:          (fc1): Linear(in_features=1024, out_features=4096, bias=True)
2022-11-28 07:35:26 [1,0]<stderr>:          (fc2): Linear(in_features=4096, out_features=1024, bias=True)
2022-11-28 07:35:26 [1,0]<stderr>:          (final_layer_norm): FusedLayerNorm(torch.Size([1024]), eps=1e-05, elementwise_affine=True)
2022-11-28 07:35:26 [1,0]<stderr>:        )
2022-11-28 07:35:26 [1,0]<stderr>:        (16): TransformerDecoderLayerBase(
2022-11-28 07:35:26 [1,0]<stderr>:          (dropout_module): FairseqDropout()
2022-11-28 07:35:26 [1,0]<stderr>:          (self_attn): MultiheadAttention(
2022-11-28 07:35:26 [1,0]<stderr>:            (dropout_module): FairseqDropout()
2022-11-28 07:35:26 [1,0]<stderr>:            (k_proj): Linear(in_features=1024, out_features=1024, bias=True)
2022-11-28 07:35:26 [1,0]<stderr>:            (v_proj): Linear(in_features=1024, out_features=1024, bias=True)
2022-11-28 07:35:26 [1,0]<stderr>:            (q_proj): Linear(in_features=1024, out_features=1024, bias=True)
2022-11-28 07:35:26 [1,0]<stderr>:            (out_proj): Linear(in_features=1024, out_features=1024, bias=True)
2022-11-28 07:35:26 [1,0]<stderr>:          )
2022-11-28 07:35:26 [1,0]<stderr>:          (activation_dropout_module): FairseqDropout()
2022-11-28 07:35:26 [1,0]<stderr>:          (self_attn_layer_norm): FusedLayerNorm(torch.Size([1024]), eps=1e-05, elementwise_affine=True)
2022-11-28 07:35:26 [1,0]<stderr>:          (encoder_attn): MultiheadAttention(
2022-11-28 07:35:26 [1,0]<stderr>:            (dropout_module): FairseqDropout()
2022-11-28 07:35:26 [1,0]<stderr>:            (k_proj): Linear(in_features=1024, out_features=1024, bias=True)
2022-11-28 07:35:26 [1,0]<stderr>:            (v_proj): Linear(in_features=1024, out_features=1024, bias=True)
2022-11-28 07:35:26 [1,0]<stderr>:            (q_proj): Linear(in_features=1024, out_features=1024, bias=True)
2022-11-28 07:35:26 [1,0]<stderr>:            (out_proj): Linear(in_features=1024, out_features=1024, bias=True)
2022-11-28 07:35:26 [1,0]<stderr>:          )
2022-11-28 07:35:26 [1,0]<stderr>:          (encoder_attn_layer_norm): FusedLayerNorm(torch.Size([1024]), eps=1e-05, elementwise_affine=True)
2022-11-28 07:35:26 [1,0]<stderr>:          (fc1): Linear(in_features=1024, out_features=4096, bias=True)
2022-11-28 07:35:26 [1,0]<stderr>:          (fc2): Linear(in_features=4096, out_features=1024, bias=True)
2022-11-28 07:35:26 [1,0]<stderr>:          (final_layer_norm): FusedLayerNorm(torch.Size([1024]), eps=1e-05, elementwise_affine=True)
2022-11-28 07:35:26 [1,0]<stderr>:        )
2022-11-28 07:35:26 [1,0]<stderr>:        (17): TransformerDecoderLayerBase(
2022-11-28 07:35:26 [1,0]<stderr>:          (dropout_module): FairseqDropout()
2022-11-28 07:35:26 [1,0]<stderr>:          (self_attn): MultiheadAttention(
2022-11-28 07:35:26 [1,0]<stderr>:            (dropout_module): FairseqDropout()
2022-11-28 07:35:26 [1,0]<stderr>:            (k_proj): Linear(in_features=1024, out_features=1024, bias=True)
2022-11-28 07:35:26 [1,0]<stderr>:            (v_proj): Linear(in_features=1024, out_features=1024, bias=True)
2022-11-28 07:35:26 [1,0]<stderr>:            (q_proj): Linear(in_features=1024, out_features=1024, bias=True)
2022-11-28 07:35:26 [1,0]<stderr>:            (out_proj): Linear(in_features=1024, out_features=1024, bias=True)
2022-11-28 07:35:26 [1,0]<stderr>:          )
2022-11-28 07:35:26 [1,0]<stderr>:          (activation_dropout_module): FairseqDropout()
2022-11-28 07:35:26 [1,0]<stderr>:          (self_attn_layer_norm): FusedLayerNorm(torch.Size([1024]), eps=1e-05, elementwise_affine=True)
2022-11-28 07:35:26 [1,0]<stderr>:          (encoder_attn): MultiheadAttention(
2022-11-28 07:35:26 [1,0]<stderr>:            (dropout_module): FairseqDropout()
2022-11-28 07:35:26 [1,0]<stderr>:            (k_proj): Linear(in_features=1024, out_features=1024, bias=True)
2022-11-28 07:35:26 [1,0]<stderr>:            (v_proj): Linear(in_features=1024, out_features=1024, bias=True)
2022-11-28 07:35:26 [1,0]<stderr>:            (q_proj): Linear(in_features=1024, out_features=1024, bias=True)
2022-11-28 07:35:26 [1,0]<stderr>:            (out_proj): Linear(in_features=1024, out_features=1024, bias=True)
2022-11-28 07:35:26 [1,0]<stderr>:          )
2022-11-28 07:35:26 [1,0]<stderr>:          (encoder_attn_layer_norm): FusedLayerNorm(torch.Size([1024]), eps=1e-05, elementwise_affine=True)
2022-11-28 07:35:26 [1,0]<stderr>:          (fc1): Linear(in_features=1024, out_features=4096, bias=True)
2022-11-28 07:35:26 [1,0]<stderr>:          (fc2): Linear(in_features=4096, out_features=1024, bias=True)
2022-11-28 07:35:26 [1,0]<stderr>:          (final_layer_norm): FusedLayerNorm(torch.Size([1024]), eps=1e-05, elementwise_affine=True)
2022-11-28 07:35:26 [1,0]<stderr>:        )
2022-11-28 07:35:26 [1,0]<stderr>:        (18): TransformerDecoderLayerBase(
2022-11-28 07:35:26 [1,0]<stderr>:          (dropout_module): FairseqDropout()
2022-11-28 07:35:26 [1,0]<stderr>:          (self_attn): MultiheadAttention(
2022-11-28 07:35:26 [1,0]<stderr>:            (dropout_module): FairseqDropout()
2022-11-28 07:35:26 [1,0]<stderr>:            (k_proj): Linear(in_features=1024, out_features=1024, bias=True)
2022-11-28 07:35:26 [1,0]<stderr>:            (v_proj): Linear(in_features=1024, out_features=1024, bias=True)
2022-11-28 07:35:26 [1,0]<stderr>:            (q_proj): Linear(in_features=1024, out_features=1024, bias=True)
2022-11-28 07:35:26 [1,0]<stderr>:            (out_proj): Linear(in_features=1024, out_features=1024, bias=True)
2022-11-28 07:35:26 [1,0]<stderr>:          )
2022-11-28 07:35:26 [1,0]<stderr>:          (activation_dropout_module): FairseqDropout()
2022-11-28 07:35:26 [1,0]<stderr>:          (self_attn_layer_norm): FusedLayerNorm(torch.Size([1024]), eps=1e-05, elementwise_affine=True)
2022-11-28 07:35:26 [1,0]<stderr>:          (encoder_attn): MultiheadAttent[1,0]<stderr>:ion(
2022-11-28 07:35:26 [1,0]<stderr>:            (dropout_module): FairseqDropout()
2022-11-28 07:35:26 [1,0]<stderr>:            (k_proj): Linear(in_features=1024, out_features=1024, bias=True)
2022-11-28 07:35:26 [1,0]<stderr>:            (v_proj): Linear(in_features=1024, out_features=1024, bias=True)
2022-11-28 07:35:26 [1,0]<stderr>:            (q_proj): Linear(in_features=1024, out_features=1024, bias=True)
2022-11-28 07:35:26 [1,0]<stderr>:            (out_proj): Linear(in_features=1024, out_features=1024, bias=True)
2022-11-28 07:35:26 [1,0]<stderr>:          )
2022-11-28 07:35:26 [1,0]<stderr>:          (encoder_attn_layer_norm): FusedLayerNorm(torch.Size([1024]), eps=1e-05, elementwise_affine=True)
2022-11-28 07:35:26 [1,0]<stderr>:          (fc1): Linear(in_features=1024, out_features=4096, bias=True)
2022-11-28 07:35:26 [1,0]<stderr>:          (fc2): Linear(in_features=4096, out_features=1024, bias=True)
2022-11-28 07:35:26 [1,0]<stderr>:          (final_layer_norm): FusedLayerNorm(torch.Size([1024]), eps=1e-05, elementwise_affine=True)
2022-11-28 07:35:26 [1,0]<stderr>:        )
2022-11-28 07:35:26 [1,0]<stderr>:        (19): TransformerDecoderLayerBase(
2022-11-28 07:35:26 [1,0]<stderr>:          (dropout_module): FairseqDropout()
2022-11-28 07:35:26 [1,0]<stderr>:          (self_attn): MultiheadAttention(
2022-11-28 07:35:26 [1,0]<stderr>:            (dropout_module): FairseqDropout()
2022-11-28 07:35:26 [1,0]<stderr>:            (k_proj): Linear(in_features=1024, out_features=1024, bias=True)
2022-11-28 07:35:26 [1,0]<stderr>:            (v_proj): Linear(in_features=1024, out_features=1024, bias=True)
2022-11-28 07:35:26 [1,0]<stderr>:            (q_proj): Linear(in_features=1024, out_features=1024, bias=True)
2022-11-28 07:35:26 [1,0]<stderr>:            (out_proj): Linear(in_features=1024, out_features=1024, bias=True)
2022-11-28 07:35:26 [1,0]<stderr>:          )
2022-11-28 07:35:26 [1,0]<stderr>:          (activation_dropout_module): FairseqDropout()
2022-11-28 07:35:26 [1,0]<stderr>:          (self_attn_layer_norm): FusedLayerNorm(torch.Size([1024]), eps=1e-05, elementwise_affine=True)
2022-11-28 07:35:26 [1,0]<stderr>:          (encoder_attn): MultiheadAttention(
2022-11-28 07:35:26 [1,0]<stderr>:            (dropout_module): FairseqDropout()
2022-11-28 07:35:26 [1,0]<stderr>:            (k_proj): Linear(in_features=1024, out_features=1024, bias=True)
2022-11-28 07:35:26 [1,0]<stderr>:            (v_proj): Linear(in_features=1024, out_features=1024, bias=True)
2022-11-28 07:35:26 [1,0]<stderr>:            (q_proj): Linear(in_features=1024, out_features=1024, bias=True)
2022-11-28 07:35:26 [1,0]<stderr>:            (out_proj): Linear(in_features=1024, out_features=1024, bias=True)
2022-11-28 07:35:26 [1,0]<stderr>:          )
2022-11-28 07:35:26 [1,0]<stderr>:          (encoder_attn_layer_norm): FusedLayerNorm(torch.Size([1024]), eps=1e-05, elementwise_affine=True)
2022-11-28 07:35:26 [1,0]<stderr>:          (fc1): Linear(in_features=1024, out_features=4096, bias=True)
2022-11-28 07:35:26 [1,0]<stderr>:          (fc2): Linear(in_features=4096, out_features=1024, bias=True)
2022-11-28 07:35:26 [1,0]<stderr>:          (final_layer_norm): FusedLayerNorm(torch.Size([1024]), eps=1e-05, elementwise_affine=True)
2022-11-28 07:35:26 [1,0]<stderr>:        )
2022-11-28 07:35:26 [1,0]<stderr>:        (20): TransformerDecoderLayerBase(
2022-11-28 07:35:26 [1,0]<stderr>:          (dropout_module): FairseqDropout()
2022-11-28 07:35:26 [1,0]<stderr>:          (self_attn): MultiheadAttention(
2022-11-28 07:35:26 [1,0]<stderr>:            (dropout_module): FairseqDropout()
2022-11-28 07:35:26 [1,0]<stderr>:            (k_proj): Linear(in_features=1024, out_features=1024, bias=True)
2022-11-28 07:35:26 [1,0]<stderr>:            (v_proj): Linear(in_features=1024, out_features=1024, bias=True)
2022-11-28 07:35:26 [1,0]<stderr>:            (q_proj): Linear(in_features=1024, out_features=1024, bias=True)
2022-11-28 07:35:26 [1,0]<stderr>:            (out_proj): Linear(in_features=1024, out_features=1024, bias=True)
2022-11-28 07:35:26 [1,0]<stderr>:          )
2022-11-28 07:35:26 [1,0]<stderr>:          (activation_dropout_module): FairseqDropout()
2022-11-28 07:35:26 [1,0]<stderr>:          (self_attn_layer_norm): FusedLayerNorm(torch.Size([1024]), eps=1e-05, elementwise_affine=True)
2022-11-28 07:35:26 [1,0]<stderr>:          (encoder_attn): MultiheadAttention(
2022-11-28 07:35:26 [1,0]<stderr>:            (dropout_module): FairseqDropout()
2022-11-28 07:35:26 [1,0]<stderr>:            (k_proj): Linear(in_features=1024, out_features=1024, bias=True)
2022-11-28 07:35:26 [1,0]<stderr>:            (v_proj): Linear(in_features=1024, out_features=1024, bias=True)
2022-11-28 07:35:26 [1,0]<stderr>:            (q_proj): Linear(in_features=1024, out_features=1024, bias=True)
2022-11-28 07:35:26 [1,0]<stderr>:            (out_proj): Linear(in_features=1024, out_features=1024, bias=True)
2022-11-28 07:35:26 [1,0]<stderr>:          )
2022-11-28 07:35:26 [1,0]<stderr>:          (encoder_attn_layer_norm): FusedLayerNorm(torch.Size([1024]), eps=1e-05, elementwise_affine=True)
2022-11-28 07:35:26 [1,0]<stderr>:          (fc1): Linear(in_features=1024, out_features=4096, bias=True)
2022-11-28 07:35:26 [1,0]<stderr>:          (fc2): Linear(in_features=4096, out_features=1024, bias=True)
2022-11-28 07:35:26 [1,0]<stderr>:          (final_layer_norm): FusedLayerNorm(torch.Size([1024]), eps=1e-05, elementwise_affine=True)
2022-11-28 07:35:26 [1,0]<stderr>:        )
2022-11-28 07:35:26 [1,0]<stderr>:        (21): TransformerDecoderLayerBase(
2022-11-28 07:35:26 [1,0]<stderr>:          (dropout_module): FairseqDropout()
2022-11-28 07:35:26 [1,0]<stderr>:          (self_attn): MultiheadAttention(
2022-11-28 07:35:26 [1,0]<stderr>:            (dropout_module): FairseqDropout()
2022-11-28 07:35:26 [1,0]<stderr>:            (k_proj): Linear(in_features=1024, out_features=1024, bias=True)
2022-11-28 07:35:26 [1,0]<stderr>:            (v_proj): Linear(in_features=1024, out_features=1024, bias=True)
2022-11-28 07:35:26 [1,0]<stderr>:            (q_proj): Linear(in_features=1024, out_features=1024, bias=True)
2022-11-28 07:35:26 [1,0]<stderr>:            (out_proj): Linear(in_features=1024, out_features=1024, bias[1,0]<stderr>:=True)
2022-11-28 07:35:26 [1,0]<stderr>:          )
2022-11-28 07:35:26 [1,0]<stderr>:          (activation_dropout_module): FairseqDropout()
2022-11-28 07:35:26 [1,0]<stderr>:          (self_attn_layer_norm): FusedLayerNorm(torch.Size([1024]), eps=1e-05, elementwise_affine=True)
2022-11-28 07:35:26 [1,0]<stderr>:          (encoder_attn): MultiheadAttention(
2022-11-28 07:35:26 [1,0]<stderr>:            (dropout_module): FairseqDropout()
2022-11-28 07:35:26 [1,0]<stderr>:            (k_proj): Linear(in_features=1024, out_features=1024, bias=True)
2022-11-28 07:35:26 [1,0]<stderr>:            (v_proj): Linear(in_features=1024, out_features=1024, bias=True)
2022-11-28 07:35:26 [1,0]<stderr>:            (q_proj): Linear(in_features=1024, out_features=1024, bias=True)
2022-11-28 07:35:26 [1,0]<stderr>:            (out_proj): Linear(in_features=1024, out_features=1024, bias=True)
2022-11-28 07:35:26 [1,0]<stderr>:          )
2022-11-28 07:35:26 [1,0]<stderr>:          (encoder_attn_layer_norm): FusedLayerNorm(torch.Size([1024]), eps=1e-05, elementwise_affine=True)
2022-11-28 07:35:26 [1,0]<stderr>:          (fc1): Linear(in_features=1024, out_features=4096, bias=True)
2022-11-28 07:35:26 [1,0]<stderr>:          (fc2): Linear(in_features=4096, out_features=1024, bias=True)
2022-11-28 07:35:26 [1,0]<stderr>:          (final_layer_norm): FusedLayerNorm(torch.Size([1024]), eps=1e-05, elementwise_affine=True)
2022-11-28 07:35:26 [1,0]<stderr>:        )
2022-11-28 07:35:26 [1,0]<stderr>:        (22): TransformerDecoderLayerBase(
2022-11-28 07:35:26 [1,0]<stderr>:          (dropout_module): FairseqDropout()
2022-11-28 07:35:26 [1,0]<stderr>:          (self_attn): MultiheadAttention(
2022-11-28 07:35:26 [1,0]<stderr>:            (dropout_module): FairseqDropout()
2022-11-28 07:35:26 [1,0]<stderr>:            (k_proj): Linear(in_features=1024, out_features=1024, bias=True)
2022-11-28 07:35:26 [1,0]<stderr>:            (v_proj): Linear(in_features=1024, out_features=1024, bias=True)
2022-11-28 07:35:26 [1,0]<stderr>:            (q_proj): Linear(in_features=1024, out_features=1024, bias=True)
2022-11-28 07:35:26 [1,0]<stderr>:            (out_proj): Linear(in_features=1024, out_features=1024, bias=True)
2022-11-28 07:35:26 [1,0]<stderr>:          )
2022-11-28 07:35:26 [1,0]<stderr>:          (activation_dropout_module): FairseqDropout()
2022-11-28 07:35:26 [1,0]<stderr>:          (self_attn_layer_norm): FusedLayerNorm(torch.Size([1024]), eps=1e-05, elementwise_affine=True)
2022-11-28 07:35:26 [1,0]<stderr>:          (encoder_attn): MultiheadAttention(
2022-11-28 07:35:26 [1,0]<stderr>:            (dropout_module): FairseqDropout()
2022-11-28 07:35:26 [1,0]<stderr>:            (k_proj): Linear(in_features=1024, out_features=1024, bias=True)
2022-11-28 07:35:26 [1,0]<stderr>:            (v_proj): Linear(in_features=1024, out_features=1024, bias=True)
2022-11-28 07:35:26 [1,0]<stderr>:            (q_proj): Linear(in_features=1024, out_features=1024, bias=True)
2022-11-28 07:35:26 [1,0]<stderr>:            (out_proj): Linear(in_features=1024, out_features=1024, bias=True)
2022-11-28 07:35:26 [1,0]<stderr>:          )
2022-11-28 07:35:26 [1,0]<stderr>:          (encoder_attn_layer_norm): FusedLayerNorm(torch.Size([1024]), eps=1e-05, elementwise_affine=True)
2022-11-28 07:35:26 [1,0]<stderr>:          (fc1): Linear(in_features=1024, out_features=4096, bias=True)
2022-11-28 07:35:26 [1,0]<stderr>:          (fc2): Linear(in_features=4096, out_features=1024, bias=True)
2022-11-28 07:35:26 [1,0]<stderr>:          (final_layer_norm): FusedLayerNorm(torch.Size([1024]), eps=1e-05, elementwise_affine=True)
2022-11-28 07:35:26 [1,0]<stderr>:        )
2022-11-28 07:35:26 [1,0]<stderr>:        (23): TransformerDecoderLayerBase(
2022-11-28 07:35:26 [1,0]<stderr>:          (dropout_module): FairseqDropout()
2022-11-28 07:35:26 [1,0]<stderr>:          (self_attn): MultiheadAttention(
2022-11-28 07:35:26 [1,0]<stderr>:            (dropout_module): FairseqDropout()
2022-11-28 07:35:26 [1,0]<stderr>:            (k_proj): Linear(in_features=1024, out_features=1024, bias=True)
2022-11-28 07:35:26 [1,0]<stderr>:            (v_proj): Linear(in_features=1024, out_features=1024, bias=True)
2022-11-28 07:35:26 [1,0]<stderr>:            (q_proj): Linear(in_features=1024, out_features=1024, bias=True)
2022-11-28 07:35:26 [1,0]<stderr>:            (out_proj): Linear(in_features=1024, out_features=1024, bias=True)
2022-11-28 07:35:26 [1,0]<stderr>:          )
2022-11-28 07:35:26 [1,0]<stderr>:          (activation_dropout_module): FairseqDropout()
2022-11-28 07:35:26 [1,0]<stderr>:          (self_attn_layer_norm): FusedLayerNorm(torch.Size([1024]), eps=1e-05, elementwise_affine=True)
2022-11-28 07:35:26 [1,0]<stderr>:          (encoder_attn): MultiheadAttention(
2022-11-28 07:35:26 [1,0]<stderr>:            (dropout_module): FairseqDropout()
2022-11-28 07:35:26 [1,0]<stderr>:            (k_proj): Linear(in_features=1024, out_features=1024, bias=True)
2022-11-28 07:35:26 [1,0]<stderr>:            (v_proj): Linear(in_features=1024, out_features=1024, bias=True)
2022-11-28 07:35:26 [1,0]<stderr>:            (q_proj): Linear(in_features=1024, out_features=1024, bias=True)
2022-11-28 07:35:26 [1,0]<stderr>:            (out_proj): Linear(in_features=1024, out_features=1024, bias=True)
2022-11-28 07:35:26 [1,0]<stderr>:          )
2022-11-28 07:35:26 [1,0]<stderr>:          (encoder_attn_layer_norm): FusedLayerNorm(torch.Size([1024]), eps=1e-05, elementwise_affine=True)
2022-11-28 07:35:26 [1,0]<stderr>:          (fc1): Linear(in_features=1024, out_features=4096, bias=True)
2022-11-28 07:35:26 [1,0]<stderr>:          (fc2): Linear(in_features=4096, out_features=1024, bias=True)
2022-11-28 07:35:26 [1,0]<stderr>:          (final_layer_norm): FusedLayerNorm(torch.Size([1024]), eps=1e-05, elementwise_affine=True)
2022-11-28 07:35:26 [1,0]<stderr>:        )
2022-11-28 07:35:26 [1,0]<stderr>:      )
2022-11-28 07:35:26 [1,0]<stderr>:      (output_projection): Linear(in_features=1024, out_features=250104, bias=False)
2022-11-28 07:35:26 [1,0]<stderr>:    )
2022-11-28 07:35:26 [1,0]<stderr>:    (discriminator): ElectraDecoderBase(
2022-11-28 07:35:26 [1,0]<stderr>:      (dropout_module): FairseqDropout()
2022-11-28 07:35:26 [1,0]<stderr>:      (embed_tokens): Embedding(250104, 1024, padding_idx=1)
2022-11-28 07:35:26 [1,0]<stderr>:      (embed_posit[1,0]<stderr>:ions): LearnedPositionalEmbedding(1026, 1024, padding_idx=1)
2022-11-28 07:35:26 [1,0]<stderr>:      (layernorm_embedding): FusedLayerNorm(torch.Size([1024]), eps=1e-05, elementwise_affine=True)
2022-11-28 07:35:26 [1,0]<stderr>:      (layers): ModuleList(
2022-11-28 07:35:26 [1,0]<stderr>:        (0): TransformerDecoderLayerBase(
2022-11-28 07:35:26 [1,0]<stderr>:          (dropout_module): FairseqDropout()
2022-11-28 07:35:26 [1,0]<stderr>:          (self_attn): MultiheadAttention(
2022-11-28 07:35:26 [1,0]<stderr>:            (dropout_module): FairseqDropout()
2022-11-28 07:35:26 [1,0]<stderr>:            (k_proj): Linear(in_features=1024, out_features=1024, bias=True)
2022-11-28 07:35:26 [1,0]<stderr>:            (v_proj): Linear(in_features=1024, out_features=1024, bias=True)
2022-11-28 07:35:26 [1,0]<stderr>:            (q_proj): Linear(in_features=1024, out_features=1024, bias=True)
2022-11-28 07:35:26 [1,0]<stderr>:            (out_proj): Linear(in_features=1024, out_features=1024, bias=True)
2022-11-28 07:35:26 [1,0]<stderr>:          )
2022-11-28 07:35:26 [1,0]<stderr>:          (activation_dropout_module): FairseqDropout()
2022-11-28 07:35:26 [1,0]<stderr>:          (self_attn_layer_norm): FusedLayerNorm(torch.Size([1024]), eps=1e-05, elementwise_affine=True)
2022-11-28 07:35:26 [1,0]<stderr>:          (encoder_attn): MultiheadAttention(
2022-11-28 07:35:26 [1,0]<stderr>:            (dropout_module): FairseqDropout()
2022-11-28 07:35:26 [1,0]<stderr>:            (k_proj): Linear(in_features=1024, out_features=1024, bias=True)
2022-11-28 07:35:26 [1,0]<stderr>:            (v_proj): Linear(in_features=1024, out_features=1024, bias=True)
2022-11-28 07:35:26 [1,0]<stderr>:            (q_proj): Linear(in_features=1024, out_features=1024, bias=True)
2022-11-28 07:35:26 [1,0]<stderr>:            (out_proj): Linear(in_features=1024, out_features=1024, bias=True)
2022-11-28 07:35:26 [1,0]<stderr>:          )
2022-11-28 07:35:26 [1,0]<stderr>:          (encoder_attn_layer_norm): FusedLayerNorm(torch.Size([1024]), eps=1e-05, elementwise_affine=True)
2022-11-28 07:35:26 [1,0]<stderr>:          (fc1): Linear(in_features=1024, out_features=4096, bias=True)
2022-11-28 07:35:26 [1,0]<stderr>:          (fc2): Linear(in_features=4096, out_features=1024, bias=True)
2022-11-28 07:35:26 [1,0]<stderr>:          (final_layer_norm): FusedLayerNorm(torch.Size([1024]), eps=1e-05, elementwise_affine=True)
2022-11-28 07:35:26 [1,0]<stderr>:        )
2022-11-28 07:35:26 [1,0]<stderr>:        (1): TransformerDecoderLayerBase(
2022-11-28 07:35:26 [1,0]<stderr>:          (dropout_module): FairseqDropout()
2022-11-28 07:35:26 [1,0]<stderr>:          (self_attn): MultiheadAttention(
2022-11-28 07:35:26 [1,0]<stderr>:            (dropout_module): FairseqDropout()
2022-11-28 07:35:26 [1,0]<stderr>:            (k_proj): Linear(in_features=1024, out_features=1024, bias=True)
2022-11-28 07:35:26 [1,0]<stderr>:            (v_proj): Linear(in_features=1024, out_features=1024, bias=True)
2022-11-28 07:35:26 [1,0]<stderr>:            (q_proj): Linear(in_features=1024, out_features=1024, bias=True)
2022-11-28 07:35:26 [1,0]<stderr>:            (out_proj): Linear(in_features=1024, out_features=1024, bias=True)
2022-11-28 07:35:26 [1,0]<stderr>:          )
2022-11-28 07:35:26 [1,0]<stderr>:          (activation_dropout_module): FairseqDropout()
2022-11-28 07:35:26 [1,0]<stderr>:          (self_attn_layer_norm): FusedLayerNorm(torch.Size([1024]), eps=1e-05, elementwise_affine=True)
2022-11-28 07:35:26 [1,0]<stderr>:          (encoder_attn): MultiheadAttention(
2022-11-28 07:35:26 [1,0]<stderr>:            (dropout_module): FairseqDropout()
2022-11-28 07:35:26 [1,0]<stderr>:            (k_proj): Linear(in_features=1024, out_features=1024, bias=True)
2022-11-28 07:35:26 [1,0]<stderr>:            (v_proj): Linear(in_features=1024, out_features=1024, bias=True)
2022-11-28 07:35:26 [1,0]<stderr>:            (q_proj): Linear(in_features=1024, out_features=1024, bias=True)
2022-11-28 07:35:26 [1,0]<stderr>:            (out_proj): Linear(in_features=1024, out_features=1024, bias=True)
2022-11-28 07:35:26 [1,0]<stderr>:          )
2022-11-28 07:35:26 [1,0]<stderr>:          (encoder_attn_layer_norm): FusedLayerNorm(torch.Size([1024]), eps=1e-05, elementwise_affine=True)
2022-11-28 07:35:26 [1,0]<stderr>:          (fc1): Linear(in_features=1024, out_features=4096, bias=True)
2022-11-28 07:35:26 [1,0]<stderr>:          (fc2): Linear(in_features=4096, out_features=1024, bias=True)
2022-11-28 07:35:26 [1,0]<stderr>:          (final_layer_norm): FusedLayerNorm(torch.Size([1024]), eps=1e-05, elementwise_affine=True)
2022-11-28 07:35:26 [1,0]<stderr>:        )
2022-11-28 07:35:26 [1,0]<stderr>:        (2): TransformerDecoderLayerBase(
2022-11-28 07:35:26 [1,0]<stderr>:          (dropout_module): FairseqDropout()
2022-11-28 07:35:26 [1,0]<stderr>:          (self_attn): MultiheadAttention(
2022-11-28 07:35:26 [1,0]<stderr>:            (dropout_module): FairseqDropout()
2022-11-28 07:35:26 [1,0]<stderr>:            (k_proj): Linear(in_features=1024, out_features=1024, bias=True)
2022-11-28 07:35:26 [1,0]<stderr>:            (v_proj): Linear(in_features=1024, out_features=1024, bias=True)
2022-11-28 07:35:26 [1,0]<stderr>:            (q_proj): Linear(in_features=1024, out_features=1024, bias=True)
2022-11-28 07:35:26 [1,0]<stderr>:            (out_proj): Linear(in_features=1024, out_features=1024, bias=True)
2022-11-28 07:35:26 [1,0]<stderr>:          )
2022-11-28 07:35:26 [1,0]<stderr>:          (activation_dropout_module): FairseqDropout()
2022-11-28 07:35:26 [1,0]<stderr>:          (self_attn_layer_norm): FusedLayerNorm(torch.Size([1024]), eps=1e-05, elementwise_affine=True)
2022-11-28 07:35:26 [1,0]<stderr>:          (encoder_attn): MultiheadAttention(
2022-11-28 07:35:26 [1,0]<stderr>:            (dropout_module): FairseqDropout()
2022-11-28 07:35:26 [1,0]<stderr>:            (k_proj): Linear(in_features=1024, out_features=1024, bias=True)
2022-11-28 07:35:26 [1,0]<stderr>:            (v_proj): Linear(in_features=1024, out_features=1024, bias=True)
2022-11-28 07:35:26 [1,0]<stderr>:            (q_proj): Linear(in_features=1024, out_features=1024, bias=True)
2022-11-28 07:35:26 [1,0]<stderr>:            (out_proj): Linear(in_features=1024[1,0]<stderr>:, out_features=1024, bias=True)
2022-11-28 07:35:26 [1,0]<stderr>:          )
2022-11-28 07:35:26 [1,0]<stderr>:          (encoder_attn_layer_norm): FusedLayerNorm(torch.Size([1024]), eps=1e-05, elementwise_affine=True)
2022-11-28 07:35:26 [1,0]<stderr>:          (fc1): Linear(in_features=1024, out_features=4096, bias=True)
2022-11-28 07:35:26 [1,0]<stderr>:          (fc2): Linear(in_features=4096, out_features=1024, bias=True)
2022-11-28 07:35:26 [1,0]<stderr>:          (final_layer_norm): FusedLayerNorm(torch.Size([1024]), eps=1e-05, elementwise_affine=True)
2022-11-28 07:35:26 [1,0]<stderr>:        )
2022-11-28 07:35:26 [1,0]<stderr>:        (3): TransformerDecoderLayerBase(
2022-11-28 07:35:26 [1,0]<stderr>:          (dropout_module): FairseqDropout()
2022-11-28 07:35:26 [1,0]<stderr>:          (self_attn): MultiheadAttention(
2022-11-28 07:35:26 [1,0]<stderr>:            (dropout_module): FairseqDropout()
2022-11-28 07:35:26 [1,0]<stderr>:            (k_proj): Linear(in_features=1024, out_features=1024, bias=True)
2022-11-28 07:35:26 [1,0]<stderr>:            (v_proj): Linear(in_features=1024, out_features=1024, bias=True)
2022-11-28 07:35:26 [1,0]<stderr>:            (q_proj): Linear(in_features=1024, out_features=1024, bias=True)
2022-11-28 07:35:26 [1,0]<stderr>:            (out_proj): Linear(in_features=1024, out_features=1024, bias=True)
2022-11-28 07:35:26 [1,0]<stderr>:          )
2022-11-28 07:35:26 [1,0]<stderr>:          (activation_dropout_module): FairseqDropout()
2022-11-28 07:35:26 [1,0]<stderr>:          (self_attn_layer_norm): FusedLayerNorm(torch.Size([1024]), eps=1e-05, elementwise_affine=True)
2022-11-28 07:35:26 [1,0]<stderr>:          (encoder_attn): MultiheadAttention(
2022-11-28 07:35:26 [1,0]<stderr>:            (dropout_module): FairseqDropout()
2022-11-28 07:35:26 [1,0]<stderr>:            (k_proj): Linear(in_features=1024, out_features=1024, bias=True)
2022-11-28 07:35:26 [1,0]<stderr>:            (v_proj): Linear(in_features=1024, out_features=1024, bias=True)
2022-11-28 07:35:26 [1,0]<stderr>:            (q_proj): Linear(in_features=1024, out_features=1024, bias=True)
2022-11-28 07:35:26 [1,0]<stderr>:            (out_proj): Linear(in_features=1024, out_features=1024, bias=True)
2022-11-28 07:35:26 [1,0]<stderr>:          )
2022-11-28 07:35:26 [1,0]<stderr>:          (encoder_attn_layer_norm): FusedLayerNorm(torch.Size([1024]), eps=1e-05, elementwise_affine=True)
2022-11-28 07:35:26 [1,0]<stderr>:          (fc1): Linear(in_features=1024, out_features=4096, bias=True)
2022-11-28 07:35:26 [1,0]<stderr>:          (fc2): Linear(in_features=4096, out_features=1024, bias=True)
2022-11-28 07:35:26 [1,0]<stderr>:          (final_layer_norm): FusedLayerNorm(torch.Size([1024]), eps=1e-05, elementwise_affine=True)
2022-11-28 07:35:26 [1,0]<stderr>:        )
2022-11-28 07:35:26 [1,0]<stderr>:      )
2022-11-28 07:35:26 [1,0]<stderr>:      (output_projection): LMHead(
2022-11-28 07:35:26 [1,0]<stderr>:        (dense): Linear(in_features=1024, out_features=1024, bias=True)
2022-11-28 07:35:26 [1,0]<stderr>:        (layer_norm): FusedLayerNorm(torch.Size([1024]), eps=1e-05, elementwise_affine=True)
2022-11-28 07:35:26 [1,0]<stderr>:      )
2022-11-28 07:35:26 [1,0]<stderr>:    )
2022-11-28 07:35:26 [1,0]<stderr>:  )
2022-11-28 07:35:26 [1,0]<stderr>:  (classification_heads): ModuleDict()
2022-11-28 07:35:26 [1,0]<stderr>:)
…
